models_trunk/trunk_model.pth (torch, 145968 bytes, 10 tensors)

layers.0.weight f4 [100, 1]
0	0x3f748b1d	0.9552477
1	0xbf1cedc6	-0.61300313
2	0xbed045c7	-0.40678236
3	0xbfbf4764	-1.4943662
4	0xbfc0da32	-1.5066588
5	0x3f68b573	0.9090187
6	0xbecca7a2	-0.39971644
7	0x3f174692	0.59092057
8	0x3f71213c	0.94191337
9	0xbfa48f7e	-1.285629
10	0xbed85637	-0.42253277
11	0xbf49f3ac	-0.7888744
12	0xbf9844fe	-1.1896055
13	0x3ed63f6b	0.4184526
14	0xbe17812f	-0.14795373
15	0xbf28ef91	-0.6599055
16	0x3ea8f4c6	0.32999247
17	0xbefaf659	-0.49016073
18	0xbebb4349	-0.36574772
19	0x3e9404e4	0.2890998
20	0xbf9eec02	-1.2415774
21	0x3f744890	0.9542322
22	0xbf4586f3	-0.7715904
23	0x3cd3b45a	0.025842834
24	0x3f55d84d	0.83533174
25	0x3f1038d6	0.56336725
26	0x3f7f6bdb	0.9977395
27	0x3f2a5d65	0.6654876
28	0xbf97e63f	-1.186714
29	0xbea4ac04	-0.32162488
30	0x3e1351f1	0.14386727
31	0xbeeed896	-0.46649617
32	0x3f4f822c	0.81058
33	0x3f22992b	0.63514966
34	0xbf763adf	-0.9618358
35	0xbc8babf8	-0.017049775
36	0xbeb71a38	-0.3576219
37	0xbd6cbb23	-0.057795655
38	0x3f561255	0.8362172
39	0xbe566ae0	-0.20939207
40	0x3f0ea39a	0.55718386
41	0xbedd697e	-0.43244547
42	0x3e7da869	0.24771275
43	0x3f584daf	0.84493536
44	0x3f53c642	0.8272439
45	0x3f1e1835	0.61755687
46	0x3f5b28e0	0.85609245
47	0x3f8b558b	1.0885481
48	0x3f014461	0.5049496
49	0xbe740d41	-0.23833181
50	0xbe8ab1e5	-0.27088848
51	0x3f9d57fb	1.2292475
52	0x3d4b66ee	0.04965871
53	0x3fb3ca6f	1.4046153
54	0xbe587df9	-0.21141805
55	0x3f20bf9d	0.6279238
56	0xbefaca29	-0.4898236
57	0xbf7b846a	-0.9824892
58	0xbf6e25f1	-0.93026644
59	0x3ed24759	0.4107006
60	0x3f3c8bde	0.7365092
61	0x3f9661b6	1.1748569
62	0x3e9aff3e	0.3027286
63	0x3d8ad98e	0.067797765
64	0x3f0cb85d	0.54968816
65	0xbf6e2ccb	-0.930371
66	0xbe7f9fa8	-0.24963248
67	0xbec04f2a	-0.37560397
68	0xbfaf7d47	-1.3710107
69	0xbee28da0	-0.44248676
70	0xbe691d3a	-0.22765055
71	0x3ec997f4	0.39373744
72	0xbf2c607a	-0.6733471
73	0xbf8a2d26	-1.0795028
74	0x3ec7bd58	0.39011645
75	0xbf0c9aa4	-0.5492346
76	0xbe97b4cf	-0.29630134
77	0xbee70baa	-0.45126086
78	0x3f823bba	1.0174477
79	0xbf78e569	-0.9722505
80	0x3eda2a26	0.42610282
81	0x3f217c56	0.63080347
82	0xbfbd1014	-1.4770532
83	0xbf0ffc4a	-0.5624434
84	0x3f4345a1	0.7627812
85	0xbf2fa4bf	-0.6861076
86	0xbf2cb850	-0.6746874
87	0xbf488154	-0.7832234
88	0xbd9438d9	-0.07237405
89	0x3fadd2a5	1.3579909
90	0x3f926aa0	1.1438789
91	0xbf5cac55	-0.8620046
92	0x3dbb58f4	0.09147826
93	0xbf964f81	-1.1743013
94	0xbedd769a	-0.43254548
95	0xbed6ad40	-0.41929054
96	0x3c6d85ae	0.014497204
97	0xbf1f5e79	-0.6225353
98	0x3f573dc3	0.84078616
99	0xbf8a8ffa	-1.0825188

layers.0.bias f4 [100]
0	0xbf72d751	-0.94859797
1	0x3ee9b1f2	0.45643574
2	0x3f362ce3	0.7116224
3	0xb98cc5ee	-0.0002685035
4	0x3d5262a7	0.051363613
5	0x3d03faf1	0.03222174
6	0x3e367244	0.17817026
7	0xbf2043f8	-0.6260371
8	0xbe8c64be	-0.2742061
9	0x3b9db890	0.0048132613
10	0xbeef24b8	-0.46707702
11	0x3eca19f1	0.39472917
12	0x3d7f873d	0.062384833
13	0xbd238e1b	-0.039930444
14	0xbeef79be	-0.4677257
15	0x3f3faabb	0.7486989
16	0x3d9e3be9	0.07726271
17	0x3ed20ee2	0.4102698
18	0x3ef5ff0b	0.48046145
19	0x3e358fd1	0.17730643
20	0x3ec29fe9	0.38012627
21	0xbe61b6cc	-0.22042388
22	0x3f4d7a62	0.80264866
23	0xbf314e97	-0.69260544
24	0x3ecf6a4c	0.40510786
25	0x3e83e52c	0.25760782
26	0xbf7428db	-0.9537484
27	0xbf523593	-0.82113
28	0xbe529734	-0.20565492
29	0x3ea188f8	0.3154981
30	0xbf0f745e	-0.5603694
31	0xbed0afb2	-0.40759045
32	0xbf4d72c8	-0.8025327
33	0xbef52be0	-0.47885036
34	0x3f20fbf5	0.62884456
35	0x3e7fb83a	0.2497262
36	0x3ec6d9d4	0.38838065
37	0x3d20333d	0.039111365
38	0xbf1c8765	-0.61144096
39	0x3dddf89b	0.10838433
40	0xbce47d20	-0.027891695
41	0x3ea24955	0.31696573
42	0xbe2401ea	-0.16016355
43	0xbe6b9e2e	-0.2300956
44	0x3ec965e6	0.39335555
45	0xbca00eed	-0.019538367
46	0xbf5be54f	-0.8589677
47	0x3f4fce5d	0.8117426
48	0xbf551909	-0.83241326
49	0x3e2394e2	0.15974763
50	0xbdd30e08	-0.103054106
51	0xbefbd0fe	-0.49182886
52	0xbeecbf34	-0.46239626
53	0x3d82efab	0.06393369
54	0x3e0c3db1	0.13695408
55	0x3eb22585	0.3479425
56	0x3f11352f	0.56721777
57	0x3da16874	0.07881251
58	0x3f05f7a1	0.52330977
59	0xbf0f4037	-0.5595736
60	0xbd9f4336	-0.07776491
61	0xbed8d722	-0.42351633
62	0x3f30177c	0.68785834
63	0x3e7159d6	0.23569426
64	0x3f00aec1	0.50266653
65	0x3f52af05	0.8229831
66	0xbe09e679	-0.13466825
67	0x3e9e7b68	0.30953526
68	0xbca14636	-0.0196868
69	0x3ed5f3bb	0.41787514
70	0x3eb2076f	0.34771296
71	0xbf059616	-0.5218214
72	0x3f2e2645	0.68027145
73	0xbe80c846	-0.25152797
74	0xbea9ca79	-0.33162287
75	0x3cd63ccb	0.026152035
76	0xbf00db41	-0.50334555
77	0x3eccb0de	0.3997869
78	0xbf6fbb13	-0.9364483
79	0x3f465787	0.77477306
80	0xbea8cb29	-0.329675
81	0xbefad913	-0.4899374
82	0x3e145310	0.14484811
83	0xbeb881fb	-0.36036667
84	0xbee2e0d5	-0.44312158
85	0xbb69e066	-0.003568673
86	0x3f4ae7ab	0.7925975
87	0xbdbf2c15	-0.0933458
88	0xbee8fe20	-0.45506382
89	0x3ee126f9	0.43975046
90	0xbf8a0dfe	-1.078552
91	0xbc5b05ff	-0.013368129
92	0xbd7aafef	-0.06120294
93	0x3ef5fbd2	0.48043686
94	0x3e9ae21f	0.30250642
95	0x3efd19a6	0.4943363
96	0xbee4b311	-0.44667867
97	0xbf0c3cfd	-0.5478056
98	0xbf65d092	-0.8977138
99	0x3f7daa8a	0.99088347

layers.2.weight f4 [100, 100]
0	0xbd9d77d0	-0.07688868
1	0x3c1ffdc5	0.009765093
2	0xbd599846	-0.053123735
3	0xbd001010	-0.03126532
4	0x3c767379	0.015042179
5	0x3c0b3b04	0.008497957
6	0x3dde16cf	0.10844194
7	0xbd704506	-0.058659576
8	0x3d276402	0.04086686
9	0x3c3c7d92	0.011504548
10	0xbd5d6bde	-0.05405795
11	0xbd8d31aa	-0.06894238
12	0xbdab4c66	-0.08364181
13	0xbd252d7d	-0.040326584
14	0x3d6a7703	0.057242405
15	0xbb823b8f	-0.003974385
16	0xbdb3c49c	-0.08777735
17	0x3d4f39f9	0.050592396
18	0x3d686ae4	0.056742564
19	0xbd3e3b42	-0.04644323
20	0xbd14bd3f	-0.03631329
21	0xbd7e0627	-0.062017586
22	0xbd12c794	-0.035834864
23	0x3dc4b570	0.09604919
24	0x3d0c2707	0.034216907
25	0xbcb3c1b5	-0.021942953
26	0x3d6d3d85	0.057919998
27	0xbd50b717	-0.050955858
28	0xbdab4f70	-0.08364761
29	0x3dbbad4a	0.09163912
30	0xbbe2d96d	-0.006922892
31	0xbcf288da	-0.029606272
32	0xbd793784	-0.06084396
33	0xbd9537ec	-0.07286057
34	0xbcf89525	-0.030344555
35	0x3d2e33d3	0.042529892
36	0xbc79c555	-0.0152448015
37	0xbdbf7829	-0.093490906
38	0x3de43b7b	0.111441575
39	0xbd8a0d51	-0.06740821
40	0x3db42a35	0.08797113
41	0xbd66dc9c	-0.056362733
42	0x3d8bf725	0.068342485
43	0xbdc22afd	-0.094808556
44	0xbdab37d4	-0.08360258
45	0xbdaa3aeb	-0.08312019
46	0x3dbce1e7	0.09222775
47	0x3cf9bc8e	0.030485418
48	0xbda44c79	-0.080223985
49	0xbcd16692	-0.025561605
50	0xbdb0b619	-0.08628482
51	0xbdac64d3	-0.08417668
52	0x3dc2306c	0.09481892
53	0xbd40b430	-0.04704684
54	0x3d4a0eb7	0.04933044
55	0x3c35dde5	0.011100267
56	0xbdadd2a0	-0.08487439
57	0x3da8d6d9	0.08244104
58	0x3d99df67	0.07513314
59	0x3dc09b3c	0.094046086
60	0x3d8a759f	0.06760716
61	0xbcb17b15	-0.021665135
62	0xbc6bb3fd	-0.014386174
63	0x3d050c97	0.03248271
64	0x3da550e5	0.0807207
65	0x3ce49dee	0.027907338
66	0x3dc72cb2	0.09725322
67	0xbdd0d561	-0.10196949
68	0x3bb342cb	0.005470609
69	0xbc0ba3b9	-0.008522921
70	0xbd020120	-0.031739354
71	0xbdb494d9	-0.08817453
72	0x3d3072fb	0.043078404
73	0x3d89aec8	0.0672279
74	0xbd8a2c15	-0.06746689
75	0x3dba164a	0.090862826
76	0xbd0f5294	-0.034990862
77	0xbd274e05	-0.04084589
78	0x3db321a7	0.08746653
79	0x3d09433c	0.033511385
80	0x3d2393a0	0.039935708
81	0x3c36507f	0.01112759
82	0xbd6774d5	-0.056507904
83	0xbd06cd78	-0.032910794
84	0xbba856a8	-0.0051372834
85	0xbcd330e2	-0.025780145
86	0x3d812ddd	0.06307576
87	0xbcfad966	-0.030621242
88	0x3dabe23d	0.08392761
89	0xbd39fdcd	-0.04540806
90	0x3d87ce51	0.066311486
91	0xbd6dc11c	-0.05804549
92	0xbd2e4d09	-0.042553935
93	0xbd0eb2b0	-0.03483838
94	0xbd981749	-0.07426316
95	0x3d3cdbc1	0.04610801
96	0x3af7669c	0.0018875184
97	0x3d52c313	0.05145557
98	0xbd9bcbef	-0.076072566
99	0xbd0102c4	-0.031496778
100	0x3d526573	0.05136628
101	0x3d82dbaa	0.06389554
102	0xbd142d5b	-0.036176067
103	0xbd3879cd	-0.045038033
104	0xbd2e0636	-0.042486392
105	0x3c09ed8b	0.008418451
106	0x3b2466d9	0.0025085716
107	0x3d0e6b30	0.03477019
108	0x3ce2ddbc	0.027693622
109	0x3da3a175	0.0798978
110	0x3d769471	0.06020016
111	0xbddf3caa	-0.109002426
112	0xbd93ed88	-0.0722304
113	0x3d218e30	0.03944224
114	0xbc959e42	-0.01826394
115	0x3d6e9903	0.058251392
116	0xbd7526ce	-0.05985146
117	0x3d9233c0	0.07138777
118	0x3c8698de	0.016430315
119	0xbbcf6c78	-0.006330069
120	0x3c567e28	0.013091601
121	0xbca86351	-0.02055517
122	0x3d7beb27	0.061503556
123	0xbd145829	-0.03621689
124	0xbd946e3c	-0.07247588
125	0x3dd63b39	0.104605146
126	0xbd9e405e	-0.07727121
127	0xbd532a67	-0.05155411
128	0x3d3c5eb6	0.04598876
129	0x3d430562	0.047612555
130	0xbb70ad0d	-0.003672424
131	0x3ccca48c	0.024980806
132	0x3dbb2b88	0.09139162
133	0x3dbec73f	0.09315347
134	0xbd3f6a3b	-0.04673217
135	0x3d98167d	0.07426164
136	0xbd76123a	-0.060075976
137	0xbd2fb351	-0.04289562
138	0x3da832aa	0.082127884
139	0x3d0e5415	0.034748156
140	0xbd8d4be7	-0.06899243
141	0xbd22a8b7	-0.03971168
142	0x3d18fff5	0.037353475
143	0xbcf29104	-0.029610164
144	0x3cb6dce7	0.022322131
145	0xbd8b48ae	-0.06800972
146	0x3d36776e	0.04454749
147	0x3da73c8f	0.081658475
148	0xbdc7ed80	-0.097620964
149	0x3ca00f67	0.019538594
150	0xbd86d2c0	-0.06583166
151	0x3d30a7f7	0.043128934
152	0x3d8e72f3	0.069555186
153	0xbdf29e77	-0.11846631
154	0xbcad5500	-0.021158695
155	0xbd0ee753	-0.034888577
156	0x3d911614	0.07084289
157	0xbc1fdc0e	-0.009757055
158	0xbdd0da9b	-0.10197946
159	0xbd6890b8	-0.05677864
160	0xbc38645d	-0.011254397
161	0x3ce3ef83	0.027824169
162	0xbd91c474	-0.071175486
163	0xbcad69e4	-0.021168657
164	0x3d298f95	0.041396696
165	0x3d6f377b	0.05840252
166	0x3ccfaf10	0.025352031
167	0xbd8adfd2	-0.067809716
168	0xbd611cc1	-0.054959062
169	0xbdbade49	-0.09124429
170	0xbd2d8c32	-0.04237003
171	0x3d805fa2	0.062682405
172	0xbc2508dc	-0.010072913
173	0xbdc3eb59	-0.095663734
174	0xbcb69343	-0.022287017
175	0xbd467773	-0.04845376
176	0xbd8ee623	-0.06977489
177	0x3d6b12fb	0.057391148
178	0xbd92aca7	-0.07161837
179	0x3d4a719a	0.049424745
180	0xbd55cc9b	-0.05219708
181	0xbcd9d488	-0.0265906
182	0x3d3f02a6	0.046633385
183	0x3d1171fe	0.035509102
184	0xbd817823	-0.063217424
185	0xbd09681c	-0.033546552
186	0xbc7ecc1d	-0.015551594
187	0x3d67585b	0.056480747
188	0x3d53a6d2	0.051672764
189	0x3d639a14	0.055566862
190	0x3d887129	0.066622086
191	0x3d5978ee	0.053093843
192	0xbb6e9ae7	-0.0036408247
193	0x3da81477	0.08207028
194	0x3d094170	0.03350967
195	0xbc31739a	-0.010830784
196	0xbd1c0295	-0.0380884
197	0x3d86063b	0.06544157
198	0x3de492df	0.11160826
199	0x3d6cd4eb	0.057820242
200	0x3d3e29e0	0.046426654
201	0xbccbd038	-0.02487956
202	0x3d1fe719	0.03903875
203	0x3d2d0aaf	0.042246517
204	0xbd4a7002	-0.049423225
205	0x3d9ca502	0.0764866
206	0x3d5200f4	0.05127044
207	0x3cb3d713	0.021953141
208	0x3d8d6e9d	0.069058634
209	0x3da02f5e	0.078215346
210	0xbd58c8aa	-0.052925743
211	0x3cbabbd7	0.022794647
212	0x3cbaf7a7	0.022823168
213	0xbdc0a43f	-0.094063275
214	0x3d13c152	0.036073036
215	0xbd9ddc5f	-0.07708048
216	0xbcf06905	-0.029346952
217	0x3bc11e2f	0.0058934907
218	0x3da2c5da	0.079478934
219	0xbb059ab0	-0.002038639
220	0xbd284090	-0.041077197
221	0xbd4b094d	-0.049569417
222	0xbb208fff	-0.002449989
223	0xbdd860e3	-0.10565355
224	0x3bef6450	0.0073056594
225	0xbdc45c92	-0.09587969
226	0xbd9a64e7	-0.07538777
227	0x3da67565	0.0812786
228	0xbcffbf4e	-0.03121915
229	0xbd4230a0	-0.047409654
230	0xbd9ba71e	-0.076002344
231	0x3d1d1b42	0.038356073
232	0xbddda885	-0.10823158
233	0x3be63659	0.0070255217
234	0x3d90957f	0.07059764
235	0xbd6d8666	-0.0579895
236	0xbb9faafa	-0.004872677
237	0x3dc50112	0.09619345
238	0x3d8b1522	0.0679114
239	0x3c256dd2	0.010096984
240	0xbd6284fd	-0.05530261
241	0xbd86320d	-0.06552515
242	0x3cf24764	0.029575057
243	0x3d3c9df5	0.046049077
244	0x3d953ad9	0.07286615
245	0x3da05dfd	0.07830427
246	0xbdc71820	-0.09721398
247	0xbd94d427	-0.07267027
248	0x3dac1a16	0.08403413
249	0xbda368eb	-0.07978996
250	0x3d94c037	0.072632246
251	0x3b8558e0	0.0040694326
252	0xbd1857d4	-0.037193134
253	0x3d2a97b1	0.04164857
254	0xbcd6b41c	-0.02620893
255	0xbaef81d2	-0.0018272942

layers.2.bias f4 [100]
0	0x3db16232	0.086613074
1	0xbae2e5df	-0.0017310939
2	0xbd0d2a3c	-0.034464106
3	0xbd331f6c	-0.043731138
4	0x3cc6a26b	0.024247369
5	0xbe99aae1	-0.30013183
6	0xbc2745b6	-0.0102094915
7	0x3d4ad28e	0.049517207
8	0x3db53703	0.08848383
9	0x3d7e76db	0.06212507
10	0xbcc9922f	-0.024605839
11	0xbd665534	-0.0562336
12	0x3dc42625	0.09577588
13	0xbd0c07c6	-0.0341871
14	0xbd3477ff	-0.04405975
15	0xbe007ec4	-0.12548357
16	0x3bd3982f	0.0064573507
17	0x3d97f9eb	0.07420715
18	0x3d683966	0.056695364
19	0x3c8cedf5	0.01720331
20	0xbe1516fb	-0.14559548
21	0x3db71f0a	0.08941467
22	0x3db73687	0.08945947
23	0x3dc32c6b	0.095299564
24	0x3bc018cd	0.0058623315
25	0x3db19f56	0.08672969
26	0xbdb85ae2	-0.090017095
27	0xbd8af748	-0.067854464
28	0x3c2fb777	0.010724894
29	0x3d4dc657	0.05023798
30	0x3d87fd49	0.06640107
31	0xbd98c1a4	-0.07458809
32	0xbd7cc175	-0.061707933
33	0x3d4c733d	0.049914587
34	0xbd410aca	-0.04712943
35	0xbc6a5d71	-0.014304505
36	0x3a776b45	0.00094382867
37	0xbc28cbe2	-0.010302516
38	0xbcd06be8	-0.025442079
39	0x3d8e0c83	0.0693598
40	0xbdb00383	-0.0859442
41	0x3d97d2c8	0.0741325
42	0xba16fc73	-0.0005759664
43	0x3d68c352	0.056826897
44	0xbd5aa98c	-0.05338435
45	0xbb0ac190	-0.00211725
46	0xbba2b7ad	-0.0049657435
47	0xbcc29aea	-0.02375551
48	0xbd0fd46b	-0.035114687
49	0x3d92fc20	0.07176995
50	0xbd2b412d	-0.041810203
51	0xbdc20aa1	-0.094746836
52	0xbcdf7950	-0.027279526
53	0xbd306e10	-0.043073714
54	0xbdf25ff7	-0.1183471
55	0x3dbad8cf	0.09123384
56	0x3cabedb8	0.020987377
57	0xbd3deb43	-0.04636694
58	0xbe870adc	-0.26375473
59	0xbda49249	-0.08035714
60	0x3d9f3f12	0.077757016
61	0xbdc3ac5a	-0.09554358
62	0x3bf34efa	0.007425186
63	0xbd8301cc	-0.06396827
64	0xbcea59a0	-0.02860719
65	0xbd454289	-0.048159156
66	0x3dbb590b	0.09147843
67	0x3d387985	0.045037765
68	0xbd2922ab	-0.041292828
69	0x3c1aabcd	0.009440375
70	0xbd24433e	-0.04010319
71	0x3d6130e8	0.05497828
72	0xbd636b26	-0.055522107
73	0xbde7a6df	-0.11311125
74	0xbd2e2d7f	-0.042523857
75	0x3dc84bc2	0.09780075
76	0xbd02c78e	-0.03192859
77	0xbd4ed6b1	-0.050497714
78	0xbdcd19b7	-0.1001467
79	0x3c57c7be	0.013170181
80	0xbd1a8a20	-0.037729383
81	0x3dae36c5	0.0850654
82	0xbc9c7470	-0.01909849
83	0xbca2ea2a	-0.019887049
84	0x3c5fd6e8	0.0136620775
85	0xbd416c1c	-0.04722224
86	0xbc4e1c06	-0.0125799235
87	0xbc811f28	-0.015761927
88	0xbd703b59	-0.05865035
89	0x3d7777e4	0.06041707
90	0x3d906529	0.07050545
91	0x3d88ebfe	0.06685637
92	0x3d2971a0	0.041368127
93	0xbc932113	-0.017960107
94	0x3c9d146f	0.019174783
95	0xbdb4df7f	-0.08831691
96	0xbd9bfd52	-0.076166764
97	0xbd7e433b	-0.062075835
98	0xbdb1f8ef	-0.086900584
99	0xbd69c26c	-0.05707018

layers.4.weight f4 [100, 100]
0	0xbd48c69b	-0.04901753
1	0xbbd1c5a9	-0.0064017368
2	0x3c0df988	0.00866545
3	0x3bad269f	0.005284145
4	0x3c4380c9	0.01193256
5	0x3d08a8b3	0.03336401
6	0x3b36b26c	0.0027877344
7	0x3bbe3976	0.0058051897
8	0xbc167050	-0.009182051
9	0x3c0b4f60	0.008502811
10	0x3b6779d2	0.0035320413
11	0x3b865c05	0.004100325
12	0x3b212dfe	0.0024594064
13	0xbc924e0d	-0.017859483
14	0xbc8f7fc6	-0.017516982
15	0x3cc47cde	0.023985323
16	0xbbdfd1e1	-0.0068304394
17	0xbd175cdc	-0.036953792
18	0xbc93d835	-0.018047431
19	0xbc288de5	-0.010287737
20	0x3db94f66	0.09048347
21	0x3b9edaf6	0.0048478795
22	0xbeac747a	-0.33682615
23	0xbcaded0f	-0.021231202
24	0xbc7c55ac	-0.015401285
25	0x3c0a34af	0.008435412
26	0xbd423b60	-0.047419906
27	0x3cc1b2fb	0.023644915
28	0xbc54f765	-0.012998437
29	0xbbf1a88b	-0.007374828
30	0x3ddb791d	0.1071646
31	0xbc0582c1	-0.00814885
32	0x3bee865e	0.0072792014
33	0xbc3cdbca	-0.011527011
34	0xbc846e27	-0.016165806
35	0xbcd56a40	-0.02605164
36	0xbbdb5e1d	-0.006694569
37	0x3c151315	0.009098788
38	0x3e9d1201	0.30677798
39	0xbc338a1c	-0.010958221
40	0xbc7477f9	-0.014921182
41	0xbb1943b5	-0.0023386304
42	0x3a91e61a	0.0011131198
43	0x3c5fc0e9	0.013656833
44	0x3ba4e235	0.005031849
45	0xbb81be74	-0.0039594714
46	0xbab098a8	-0.001347323
47	0x3e4578a0	0.19284296
48	0xbc1671dd	-0.009182421
49	0xbb4455cf	-0.0029958372
50	0x3bde8ccd	0.006791687
51	0x3ca1ad36	0.019735914
52	0x3d70c29b	0.05877934
53	0xbd12b1f4	-0.03581424
54	0x3daef5ec	0.085429996
55	0x3bb1e542	0.005428941
56	0xbcdd3833	-0.027004337
57	0x3c26842d	0.010163349
58	0xbd56aec9	-0.052412782
59	0xbc1405f2	-0.009034621
60	0x3c154262	0.009110065
61	0xbea5cabd	-0.3238124
62	0xbc63eaf1	-0.013910995
63	0xbc80c48c	-0.01571872
64	0xbcb3409a	-0.02188139
65	0x3bfd6995	0.0077335336
66	0xbc4c83e1	-0.012482614
67	0x3c23b0a6	0.009990847
68	0x3c958714	0.018252887
69	0x3b2a617b	0.0025998044
70	0x3c5a77db	0.01333424
71	0xbae189ff	-0.0017207264
72	0xbd001a6d	-0.0312752
73	0xbdbf3e78	-0.09338087
74	0xbc29b8a6	-0.010358965
75	0xba1b1675	-0.0005916127
76	0xba5a6f6e	-0.00083326444
77	0x3bbf4e79	0.005838212
78	0x3ec09a96	0.3761794
79	0x3be2a66b	0.006916811
80	0x3c8f5513	0.017496621
81	0x3c838565	0.016054818
82	0x3e064bee	0.13114902
83	0x3c146072	0.0090561975
84	0x3e95f80a	0.292908
85	0x3c451102	0.012027981
86	0x3ae2c7e2	0.0017302001
87	0x3b19eab8	0.002348585
88	0xbd57b1e9	-0.052659903
89	0xbcd16f92	-0.025565896
90	0x3bed8803	0.00724888
91	0xbd578211	-0.052614275
92	0xbcccd2fe	-0.025002953
93	0xbc278ab5	-0.010225941
94	0x3cd6a560	0.026201904
95	0x3c951270	0.018197268
96	0xbc47fc79	-0.01220619
97	0x3d185505	0.037190456
98	0xbb6c87db	-0.0036091718
99	0xbcbbf577	-0.022944195
100	0x3d6077d8	0.054801792
101	0x3c31e65b	0.010858144
102	0x3c83c473	0.016084885
103	0x3c8f7c9f	0.017515479
104	0x39bceabd	0.00036033048
105	0x3d6018c7	0.05471113
106	0xbc9c1fe9	-0.019058185
107	0x3aa0944b	0.0012251226
108	0xbc733654	-0.014844496
109	0x3baf8635	0.005356575
110	0xbb63b659	-0.003474614
111	0xbc8fbd01	-0.017546179
112	0x3bfe1ddf	0.0077550258
113	0xbd1d14ef	-0.038350042
114	0xbc60de4c	-0.013724875
115	0xbd96bcda	-0.07360239
116	0x3cd176fb	0.02556943
117	0xbd8ed816	-0.06974809
118	0x3a083508	0.00051958906
119	0x3c72eed7	0.014827452
120	0x3d6959da	0.056970455
121	0xbc5426da	-0.012948716
122	0x3db00047	0.08593803
123	0x3cb536e4	0.0221209
124	0x3d0a66ce	0.03378945
125	0xbd048c96	-0.032360636
126	0xbe2ea661	-0.17055656
127	0xbbdbb12c	-0.00670447
128	0xbc0955f9	-0.008382314
129	0x3c0995fe	0.008397577
130	0xbdcd6956	-0.10029857
131	0xba0c2515	-0.0005346102
132	0x3c0caa9a	0.008585596
133	0xbc7dce6e	-0.015491111
134	0x3ca2cb8f	0.019872455
135	0xbd7320e1	-0.059357528
136	0xbc4e0539	-0.012574487
137	0x3ba79af5	0.005114908
138	0xbef4483b	-0.47711357
139	0xb93ba9bc	-0.0001789694
140	0x3be7b809	0.0070714992
141	0x3b928ebd	0.004472582
142	0x3d7685c9	0.06018618
143	0xba855d82	-0.0010174962
144	0x3ba30300	0.004974723
145	0xbc9210e7	-0.017830325
146	0xbb622ea1	-0.0034512656
147	0x3e23f93f	0.16013049
148	0x3b9e2c92	0.0048270905
149	0x3c568dc7	0.013095326
150	0x3d057b70	0.032588422
151	0x3c3995ed	0.011327249
152	0x3e51e05c	0.20495743
153	0xb8e58780	-0.0001094481
154	0xbd737082	-0.059433468
155	0xbc2cb344	-0.010540787
156	0x3c49a0fe	0.01230645
157	0x3a2b41ff	0.00065329665
158	0x3aff5da6	0.0019482865
159	0xbc1401ac	-0.009033602
160	0x3c46c7f9	0.012132638
161	0x3eb8d1f2	0.36097676
162	0x3cb9f55b	0.022700002
163	0x3c1b49a8	0.00947801
164	0xbbb2a404	-0.005451681
165	0x3bac0b89	0.0052503985
166	0x3c729edc	0.014808383
167	0xbb9f1cbe	-0.0048557213
168	0xbc88ba16	-0.016690295
169	0xbb8c038c	-0.0042728838
170	0xbb63d5d6	-0.0034764907
171	0x3c7a7d54	0.01528867
172	0x3c8c8949	0.017155306
173	0x3d96c5f0	0.07361972
174	0x3b89f411	0.004210003
175	0x3d266d04	0.04063131
176	0xbb4afcb0	-0.0030973367
177	0xbbd7d542	-0.0065867016
178	0x3ed6a7a2	0.4192477
179	0xba9ec660	-0.0012113564
180	0xbc38b7a6	-0.011274254
181	0xbc147c36	-0.009062817
182	0x3e0a70f8	0.13519657
183	0x3c8f3dcc	0.017485522
184	0x3edfb978	0.4369619
185	0xbab6ccda	-0.0013946549
186	0x3c31621c	0.010826614
187	0xbc289cca	-0.010291288
188	0xbdf08b5f	-0.11745333
189	0x3b9244c4	0.004463764
190	0x3b8cb2fd	0.004293798
191	0xbc0157f9	-0.0078945095
192	0x3d2af4c5	0.041737337
193	0xb96abbbc	-0.00022385916
194	0x3a0a19da	0.00052681344
195	0xbb940ce6	-0.004518139
196	0x3c7ae406	0.015313154
197	0xbc96e0a1	-0.018417658
198	0xbce26d01	-0.027639868
199	0xbc315557	-0.010823569
200	0x3c491842	0.01227385
201	0xbb58adbc	-0.0033062538
202	0x3c4d93ba	0.012547428
203	0x3c13329b	0.008984233
204	0xbc0d0e31	-0.0086093405
205	0x3b3c83ab	0.0028765004
206	0x3b3d4504	0.0028880248
207	0xbbc9562e	-0.0061443066
208	0xbc1d7eea	-0.009612778
209	0xbdedbea0	-0.116086245
210	0xbbc771f3	-0.006086582
211	0xbab3c6b7	-0.0013715838
212	0x3bac60db	0.0052605695
213	0xbbc6b697	-0.006064247
214	0xb8f6f1b1	-0.000117752126
215	0xbb64df39	-0.003492309
216	0xbc2a9826	-0.010412252
217	0x3d689ece	0.056792073
218	0x3ae29618	0.0017287163
219	0x3b20f421	0.0024559575
220	0xbb0aba33	-0.0021168112
221	0x3be6185c	0.007021947
222	0x3e9cb438	0.30606246
223	0x3ae2bf3c	0.0017299424
224	0x3c157b5b	0.0091236485
225	0x3ba2d03b	0.0049686707
226	0x3cbb3cef	0.022856204
227	0x3c56b3b6	0.01310437
228	0x3c1b9c93	0.009497779
229	0x3e8d664e	0.27617115
230	0x3e07607e	0.13220403
231	0x3b493dea	0.003070707
232	0xbbf02301	-0.0073283915
233	0xbc91b127	-0.017784668
234	0x3c9be129	0.019028263
235	0xbe3f5014	-0.18682891
236	0xbbe79363	-0.0070671304
237	0xbc19be74	-0.0093837865
238	0x3d87aa4f	0.06624281
239	0x3bb94b0e	0.005654699
240	0xbb8b71ac	-0.004255494
241	0xbc070e4e	-0.008243157
242	0x3d11d36f	0.03560203
243	0x3ac8298c	0.0015271171
244	0x3b963b32	0.0045846933
245	0xbc4d0676	-0.012513747
246	0xbdc75c17	-0.097343616
247	0x3ef526ab	0.47881064
248	0xbbe77fa5	-0.007064777
249	0xbac95318	-0.0015359847
250	0xbba7a9b7	-0.005116667
251	0x3c488a0a	0.012239942
252	0x3e885494	0.26627028
253	0xbbf97831	-0.007613205
254	0xbcf4271c	-0.029803805
255	0xbdcedc28	-0.10100585

layers.4.bias f4 [100]
0	0x3c3f619b	0.011680986
1	0xbdf4115d	-0.11917374
2	0xbddf7606	-0.10911183
3	0xb9c79149	-0.00038064484
4	0x3dfe6360	0.12421298
5	0xbd6a26c8	-0.05716589
6	0x3e97a526	0.29618186
7	0xbd959873	-0.07304468
8	0xbc995fa2	-0.01872236
9	0x3cf6e472	0.030138228
10	0xbc63392f	-0.013868614
11	0xbc346ab7	-0.011011771
12	0x3d002455	0.03128465
13	0xbd9ac86b	-0.07557758
14	0xbbb5e96e	-0.0055515086
15	0x3d9b3e65	0.0758026
16	0x3dc665b0	0.09687364
17	0xbe017739	-0.12643136
18	0x3cf7b7cf	0.030239014
19	0x3d9db765	0.07700995
20	0x3cf8cb20	0.030370295
21	0x3d89fd35	0.067377485
22	0x3c98fd05	0.018675337
23	0x3d43ddb4	0.047818854
24	0xbd66155e	-0.05617272
25	0xbdbb3842	-0.0914159
26	0xbcfad28e	-0.030617978
27	0xbd444f86	-0.047927402
28	0xbb9d77c6	-0.004805538
29	0x3cdd2266	0.026993942
30	0x3d378366	0.044803046
31	0x3da4fea6	0.08056383
32	0x3ced0a27	0.028935505
33	0x3d2cdf3b	0.042205077
34	0x3da5db48	0.08098465
35	0x3d032815	0.032020647
36	0x3adc3fab	0.0016803643
37	0x3c42fee3	0.01190159
38	0xbdcf0534	-0.10108414
39	0x3d9c8da7	0.076442055
40	0x3e10e69b	0.14150469
41	0x3df11022	0.11770655
42	0xbd2309be	-0.039804213
43	0xbcde61ff	-0.027146338
44	0x3dcf506c	0.10122761
45	0xbb92c70b	-0.004479294
46	0xbde766d1	-0.112989075
47	0x3cc3c2cd	0.0238966
48	0x3bc52c0e	0.0060172146
49	0xbcef25af	-0.029192774
50	0xbcd26df9	-0.025687205
51	0xbdbc11ad	-0.09183059
52	0xbddfdeb1	-0.10931147
53	0x3d14976f	0.03627723
54	0x3de7794b	0.11302432
55	0xbe15940a	-0.14607254
56	0xbf208d46	-0.62715566
57	0x3cabc350	0.020967156
58	0x3d843b9a	0.064566806
59	0xbcfd8268	-0.030945972
60	0xbc171f2f	-0.009223743
61	0xbae22b67	-0.0017255367
62	0x3db8ad58	0.09017438
63	0xbd4912e8	-0.049090296
64	0x3dbdb360	0.09262729
65	0x3d4a2021	0.049347047
66	0x3dc6491d	0.09681914
67	0xbd97f4df	-0.07419752
68	0xbdfb22be	-0.12262486
69	0x3d19316d	0.03740065
70	0xbd29733a	-0.041369654
71	0x3ca214a1	0.019785227
72	0xbd534f59	-0.051589344
73	0xbe130676	-0.14357933
74	0xbbd6d7a1	-0.0065564667
75	0x3d9035a3	0.070414804
76	0xbd2e722a	-0.042589344
77	0x3c4bdd0b	0.0124428375
78	0xbe0a57c3	-0.13510041
79	0xbdf0aa96	-0.11751287
80	0xbd29bfb4	-0.041442588
81	0xbda36ce3	-0.07979753
82	0xbd58a474	-0.05289121
83	0xbd9152e5	-0.07095889
84	0x3dcddee4	0.10052279
85	0x3dd4a02f	0.10382115
86	0x3da222a2	0.07916762
87	0x3d24e388	0.040256053
88	0x3c8d835d	0.017274553
89	0x3dadfc46	0.08495383
90	0xbd966b11	-0.0734464
91	0xbd882145	-0.06646971
92	0xbe20cbcc	-0.15702742
93	0xbc0e377a	-0.008680219
94	0xbca3519b	-0.019936373
95	0x3d72af4a	0.0592492
96	0x3c06aef8	0.008220427
97	0xbd091d44	-0.033475175
98	0x3d565cf6	0.05233475
99	0x3daebbdc	0.08531925

layers.6.weight f4 [100, 100]
0	0x3d0fa825	0.035072464
1	0xbd4a4327	-0.049380448
2	0x3e617488	0.2201711
3	0x3ebc22ac	0.36745203
4	0x3eb9671a	0.36211473
5	0x3e38acfb	0.18034737
6	0xbe5deb49	-0.21671785
7	0xbf129b94	-0.57268643
8	0xbd81b9d0	-0.06334269
9	0x3f8b74c6	1.0895011
10	0xbdb34068	-0.08752519
11	0x3ec2e49e	0.38065046
12	0x3f31b817	0.69421524
13	0xbf8549df	-1.0413169
14	0xbe9bbb88	-0.30416512
15	0xbe7db5cf	-0.24776386
16	0x3eca4372	0.39504582
17	0xbf201fd9	-0.62548596
18	0xbe0081fb	-0.12549584
19	0x3ed63358	0.41836047
20	0xbe5fa465	-0.21840055
21	0x3e4dd950	0.2010243
22	0xbefac1b2	-0.48975903
23	0x3e3e94f3	0.18611507
24	0xbe0301d2	-0.12793663
25	0xbf0de522	-0.55427754
26	0x3e156272	0.14588335
27	0x3f144c03	0.57928485
28	0x3f6cf7ca	0.92565596
29	0xbdf2793a	-0.118395284
30	0xbede81fe	-0.4345855
31	0x3e290439	0.16505517
32	0xbeba135f	-0.36342904
33	0x3ee246b8	0.4419458
34	0xbf01493b	-0.50502366
35	0xbec8e421	-0.3923655
36	0xbd41bff4	-0.0473022
37	0x3ef07f4e	0.46972126
38	0x3df91aaf	0.121632926
39	0x3c0683fc	0.008210178
40	0xbe9b49b5	-0.30329672
41	0x3f42264f	0.75839704
42	0xbd945dc1	-0.07244445
43	0xbe5b930d	-0.21442814
44	0x3f30e4cf	0.69099134
45	0x3d937d33	0.07201614
46	0x3cde7fb1	0.027160497
47	0x3ea840d4	0.3286196
48	0xbea5102c	-0.322389
49	0xbf231528	-0.63704157
50	0x3e82abf6	0.2552182
51	0x3c97cb92	0.018529687
52	0x3e571cac	0.21007031
53	0x3ecc070e	0.39849132
54	0xbd364d8e	-0.044507556
55	0x3d7230d3	0.059128594
56	0x3e4c7c51	0.19969298
57	0xbf194dc8	-0.5988431
58	0xbe317d8f	-0.17333053
59	0xbe9f4eb5	-0.31114736
60	0x3bdc32ec	0.0067199375
61	0xbe861d69	-0.26194313
62	0xbd11827f	-0.03552484
63	0xbe127ce3	-0.14305453
64	0xbd283bce	-0.04107266
65	0xbf100df4	-0.5627129
66	0x3f48d811	0.7845469
67	0x3e42bc73	0.190172
68	0xbebd1868	-0.36932683
69	0xbe49ae5c	-0.19695419
70	0xbfb49deb	-1.4110693
71	0xbe7adb70	-0.24497771
72	0xbd28f854	-0.04125245
73	0x3e88b148	0.26697755
74	0xbd0ffedd	-0.035155166
75	0xbe3f6354	-0.18690234
76	0x3dace5ec	0.084422916
77	0x3dff31aa	0.124606445
78	0x3eaaec02	0.33383185
79	0x3db5ae31	0.08871115
80	0x3e8cf8c5	0.27533546
81	0xbeab6516	-0.3347556
82	0x3f26f98c	0.6522453
83	0xbee1be3a	-0.44090444
84	0xbf387e6c	-0.72067904
85	0x3f73ac08	0.95184374
86	0x3f13e927	0.5777764
87	0xbf27b255	-0.6550649
88	0xbe30a728	-0.17251265
89	0xbeecbdf7	-0.46238682
90	0xbee09993	-0.43867168
91	0xbefd67da	-0.49493295
92	0xbe9e8ae4	-0.3096534
93	0xbea399df	-0.31953332
94	0xbe9bb554	-0.3041178
95	0xbef7e0e9	-0.4841378
96	0xbec39f74	-0.3820759
97	0x3f204e89	0.62619835
98	0x3e269b31	0.16270138
99	0x3d8b7f18	0.068113506
100	0xbead1d3d	-0.3381137
101	0x3ec4691a	0.38361436
102	0x3e11aab9	0.14225282
103	0x3d539437	0.05165502
104	0x3e894ad8	0.26814914
105	0x3e5061b7	0.20349775
106	0x3db2100f	0.08694469
107	0x3dc75b03	0.09734156
108	0xbe568fd8	-0.2095331
109	0xbc120699	-0.008912706
110	0xbe8d7b3d	-0.27633086
111	0xbc64eb3a	-0.013972098
112	0x3f253937	0.6454043
113	0xbf172f41	-0.5905648
114	0xbf6d2b8f	-0.9264459
115	0x3e38a2d2	0.18030861
116	0x3db963ec	0.09052262
117	0xbde27293	-0.110570095
118	0x3fe1e2f2	1.7647383
119	0x3de5c146	0.112185046
120	0xbf1c3108	-0.61012316
121	0x3e4ff762	0.20309213
122	0x3d625ae5	0.055262465
123	0xbead381b	-0.33831868
124	0xbefb124b	-0.49037394
125	0xbe78e011	-0.24304225
126	0xbd35d9b9	-0.04439709
127	0x3ddb83c5	0.107184924
128	0x3dea62f2	0.114446536
129	0xbeacdf02	-0.3376389
130	0xbe24f72d	-0.16109915
131	0x3efe9b77	0.49727985
132	0xbd4205b5	-0.047368724
133	0x3e7a1e45	0.2442561
134	0x3d91fd08	0.0712834
135	0x3e9c3833	0.30511627
136	0xbc876392	-0.016526971
137	0x3ebd08de	0.36920828
138	0xbde51fa5	-0.11187676
139	0x3e08ba36	0.13352284
140	0xbefb7000	-0.49108887
141	0xbe873023	-0.26403913
142	0xbd4ed157	-0.05049261
143	0xbbcda0d7	-0.006275277
144	0xbe3b2c14	-0.18278533
145	0x3e0b05a5	0.13576372
146	0x3de1f4a6	0.11032991
147	0xbe21b6dd	-0.15792413
148	0xbe850ac9	-0.2598479
149	0xbee70999	-0.4512451
150	0x3f13502b	0.575442
151	0xbe3a9233	-0.18219833
152	0xbd55d1d0	-0.052202046
153	0xbe92e1e8	-0.28687978
154	0xbf80cdba	-1.0062783
155	0xbb56ff2f	-0.003280591
156	0xbe344ac5	-0.17606647
157	0xbea4cb0d	-0.32186165
158	0xbdc83980	-0.09776592
159	0xbf32b397	-0.6980528
160	0x3d097b3a	0.033564784
161	0x3e8a5ee9	0.27025536
162	0xbed6ecd0	-0.4197755
163	0x3cc23167	0.023705197
164	0x3ea3f936	0.3202607
165	0xbe1e9180	-0.15485191
166	0x3ed402db	0.4140843
167	0x3ea50b33	0.32235107
168	0xbe02d6ca	-0.12777248
169	0x3ee7772e	0.45208114
170	0xbd597d2d	-0.053097893
171	0xbe6601dc	-0.22461647
172	0xbf85b177	-1.0444783
173	0xbd5bb670	-0.053640783
174	0xbbb42c8e	-0.0054984754
175	0x3ea747bf	0.32671925
176	0x3d99d675	0.075116076
177	0x3e10c268	0.1413666
178	0xbdc846a7	-0.09779101
179	0x3e106fa2	0.14105085
180	0xbde2d7f2	-0.110763445
181	0xbf35ae19	-0.70968777
182	0x3d544054	0.05181916
183	0x3ea185f9	0.31547526
184	0xbdebd287	-0.11514764
185	0xbe0322f9	-0.1280631
186	0xbe8880ca	-0.26660758
187	0xbe8b2f7a	-0.2718466
188	0x3db8c534	0.090219885
189	0x3e8bb6d6	0.2728793
190	0x3ddaa3bf	0.10675763
191	0xbe903a30	-0.28169394
192	0x3d07f422	0.033191808
193	0xbe9b11fb	-0.30287156
194	0x3e9459ad	0.28974667
195	0x3d41c232	0.04730434
196	0xbf68bdc2	-0.9091455
197	0xbe08b9e6	-0.13352165
198	0x3ebce25f	0.36891457
199	0x3d4b99cc	0.04970722
200	0x3c19d18f	0.009388342
201	0x3cad9979	0.021191346
202	0x3cb16d6a	0.021658618
203	0x3e349bb5	0.17637523
204	0x3e597472	0.21235827
205	0x3d192dcc	0.03739719
206	0xbdfe3cf1	-0.124139674
207	0xbc91292c	-0.017719828
208	0xbdaa8c20	-0.08327508
209	0x3e24157a	0.16023818
210	0x3d9e4767	0.07728463
211	0x3daf20ba	0.08551164
212	0x3e6ddda4	0.2322908
213	0xbe89510c	-0.26819646
214	0xbebe195d	-0.37128726
215	0x3ca02c65	0.019552419
216	0x3dc1c1c7	0.09460788
217	0xbe51047c	-0.20411867
218	0x3cee571a	0.029094268
219	0x3dc10951	0.09425605
220	0xbe5bf072	-0.21478441
221	0x3da91557	0.082560234
222	0xbd8a4135	-0.067507185
223	0xbd76d766	-0.060264014
224	0xbe5900e8	-0.21191752
225	0xbe838d6c	-0.25693834
226	0xbd4f3551	-0.050587956
227	0x3e5fbbd7	0.21848999
228	0x3d8e37e7	0.06944256
229	0xbe1ad338	-0.15119636
230	0xbe36ce04	-0.17852026
231	0x3e3d6894	0.18496925
232	0x3ce370c4	0.027763732
233	0x3e8397ef	0.25701854
234	0xbb48bfeb	-0.003063197
235	0x3d964a3d	0.073383786
236	0xbc4d3d3c	-0.012526806
237	0x3e68521c	0.22687572
238	0xbdbd105f	-0.09231638
239	0x3d8ad5dc	0.06779072
240	0xb9af7e90	-0.00033472897
241	0x3da79564	0.08182791
242	0xbaedf4be	-0.0018154604
243	0x3db66dfd	0.08907697
244	0x3dda1305	0.10648159
245	0x3cb477e2	0.02202982
246	0x3c61b753	0.013776618
247	0x3cc24d4e	0.023718502
248	0xbe3e8009	-0.18603529
249	0xbe398cb6	-0.18120083
250	0x3e2d7906	0.16940698
251	0xbd5321da	-0.051545955
252	0xbbdfec9f	-0.0068336274
253	0x3e5e15c1	0.21687986
254	0xbdc81936	-0.097704336
255	0xbbe26616	-0.0069091422

layers.6.bias f4 [100]
0	0xbd9f9d02	-0.07793619
1	0xbb05975d	-0.002038441
2	0x3c2ef679	0.010678881
3	0x3d7ea00a	0.062164344
4	0xbb3d89d1	-0.0028921256
5	0x3c21cc35	0.009875347
6	0x3d0a3970	0.033746183
7	0x3bd1590b	0.0063887886
8	0x3c0a3bb3	0.008437085
9	0xbdd0b59e	-0.10190891
10	0x3e4f294a	0.20230594
11	0x3d56d2e3	0.05244721
12	0xbd5cbc6e	-0.053890638
13	0xbd44cdb8	-0.04804775
14	0xbd83cc53	-0.06435456
15	0x3e21f3aa	0.15815607
16	0xbd9513ec	-0.072791904
17	0x3bc0090f	0.005860455
18	0x3c8f1b55	0.017469088
19	0x3ccf2ea8	0.025290802
20	0xbce16651	-0.027514609
21	0x3d8ab7f7	0.0677337
22	0xbd759532	-0.059956737
23	0x3e630ec8	0.22173607
24	0xbd84af3b	-0.06478735
25	0xbd09990d	-0.033593226
26	0xbde10211	-0.10986722
27	0xbd9e82e1	-0.07739807
28	0x3d5a29e3	0.053262603
29	0xbdb14f4e	-0.08657704
30	0xbe20e84a	-0.15713611
31	0x3cd49f26	0.025954794
32	0xbdb27647	-0.08713966
33	0xbd87e1ad	-0.06634841
34	0xbc0776b0	-0.008268043
35	0x3d84f527	0.064920716
36	0xbbc5f4cc	-0.006041145
37	0xbcbd984a	-0.023143906
38	0xbd68ce07	-0.056837108
39	0x3d4e6a3c	0.05039428
40	0x3e88df4a	0.26732856
41	0xbe1dff7b	-0.1542949
42	0xbdb10679	-0.08643813
43	0x3c9afac2	0.018918399
44	0xbd49dc2a	-0.04928223
45	0x3d5d6c5a	0.05405841
46	0xbd8bb2b8	-0.06821197
47	0x3d3e6e06	0.046491645
48	0xbddabb48	-0.10680252
49	0x3c996607	0.018725408
50	0x3cc6ebe2	0.0242824
51	0x3e08ce69	0.13359989
52	0xbe44fc99	-0.19236983
53	0xbe58a723	-0.21157508
54	0x3d9f47c0	0.07777357
55	0xbd9365cb	-0.0719715
56	0xbd99476e	-0.07484327
57	0xbda0460d	-0.07825861
58	0xbc7e307e	-0.015514491
59	0xbda916bb	-0.082562886
60	0xbb084e83	-0.002079875
61	0x3cf55374	0.02994702
62	0xbd94c65c	-0.072643965
63	0x3e2b4574	0.16725713
64	0xbddeb2bb	-0.10873934
65	0x3dae5338	0.085119665
66	0xbe0967c3	-0.13418488
67	0x3d084e65	0.033277888
68	0xbd72ce21	-0.05927861
69	0xbdfe79d4	-0.124255806
70	0xbcb04c27	-0.021520687
71	0x3d6558a2	0.05599273
72	0x3d6c8c14	0.057750776
73	0xbd54cd58	-0.051953644
74	0x3d9ad5e2	0.07560326
75	0x3d189df6	0.03726002
76	0x3bcab42f	0.0061860303
77	0x3dc66424	0.09687069
78	0xbdf22c66	-0.118248746
79	0xbcd51ee7	-0.026015712
80	0xbdc1d07e	-0.09463595
81	0xbd2cbe3f	-0.04217362
82	0xbdccf9ce	-0.10008584
83	0xbd53c7e5	-0.051704306
84	0xbe1acec6	-0.1511794
85	0x3e130b4b	0.14359777
86	0xbdc93a36	-0.09825556
87	0xbd326d67	-0.043561365
88	0x3e90cec7	0.2828276
89	0x3bbfa769	0.0058488143
90	0xbdd9ad6c	-0.10628781
91	0xbdb07989	-0.08616931
92	0xbda093fe	-0.07840727
93	0x3aeb0dd0	0.0017933194
94	0x3cb49863	0.02204532
95	0x3d0432f5	0.03227516
96	0x3da0a4ce	0.07843934
97	0x3d039061	0.032120112
98	0x3ca5cd3d	0.020239467
99	0xbc502a1f	-0.012705355

layers.8.weight f4 [50, 100]
0	0xbf08bbb6	-0.53411424
1	0x3b39a6a2	0.002832808
2	0x3dbf8181	0.09350873
3	0xbc82a6a2	-0.015948597
4	0xbda8dcd2	-0.08245243
5	0x3e27729a	0.16352311
6	0xbd89f07a	-0.067353204
7	0xbc32a2ba	-0.010903055
8	0x3cbbf1bf	0.022942422
9	0xbd4ccaab	-0.049997967
10	0x3cc166c6	0.023608577
11	0x3c011927	0.007879532
12	0xbec2cb71	-0.38045838
13	0x3d353cdf	0.044247504
14	0xbd1ad2ed	-0.03779881
15	0xbd2c2128	-0.042023808
16	0x3d0ad5b4	0.03389521
17	0x3cf059c8	0.029339686
18	0x3b8f271b	0.0043686754
19	0xbcb6e45f	-0.022325693
20	0x3d5d2791	0.05399281
21	0x3ae62f6a	0.0017561738
22	0x3e1b62d6	0.15174422
23	0xbb139185	-0.0022517156
24	0x3e3cfeab	0.18456523
25	0x3bdec0f8	0.006797906
26	0x3cab9f76	0.02095006
27	0x3878a508	5.9281505e-05
28	0x3d075a2d	0.033044983
29	0x3cea3e81	0.028594257
30	0x3c83122e	0.01599988
31	0xbd0575af	-0.032582935
32	0x3d080ede	0.033217303
33	0xbdd0a47f	-0.10187625
34	0xbd73057d	-0.059331406
35	0xbd830a67	-0.063984685
36	0x3b8b044b	0.004242455
37	0x3c6c54fd	0.01442456
38	0x3da2c6ec	0.079480976
39	0xbd2ce2f6	-0.042208634
40	0x3c27d7ab	0.01024429
41	0xbd02191d	-0.03176223
42	0x3d8af2c5	0.06784586
43	0xbe6880bf	-0.22705363
44	0xbcd75678	-0.026286349
45	0x3c21985a	0.009862984
46	0x3d8a2061	0.06744457
47	0xbd677bc5	-0.05651452
48	0xbe011e2d	-0.12609167
49	0x3b13901b	0.0022516313
50	0x3d94beef	0.0726298
51	0xbc3bac44	-0.011454646
52	0x3dcd6011	0.10028089
53	0xbdfec29a	-0.12439461
54	0x3d05a7af	0.03263062
55	0xbb45302f	-0.0030088534
56	0x392b218a	0.00016320325
57	0xbcb337bb	-0.02187716
58	0xba2c2747	-0.0006567132
59	0xbd1fb4dc	-0.03899084
60	0x3a7cfb66	0.00096504984
61	0xbcdacbb6	-0.026708465
62	0xbe021735	-0.12704165
63	0x3d242db2	0.04008264
64	0xbd2269ce	-0.039651684
65	0xbd832ac0	-0.06404638
66	0xbd46ded0	-0.048552334
67	0xbdc515dc	-0.0962331
68	0x3d543426	0.051807545
69	0xbcbe7650	-0.023249775
70	0xbeec8626	-0.46196097
71	0x3d79a3d2	0.060947247
72	0x3e062cfb	0.13103096
73	0x3ca3bc3f	0.019987224
74	0x3cf961e1	0.03044218
75	0xbdcb5858	-0.099289596
76	0x3e0568d1	0.13028266
77	0x3b9c5811	0.0047712405
78	0x3a350603	0.0006905498
79	0xbcaf8f25	-0.021430561
80	0xbde48c51	-0.11159576
81	0xba2d5580	-0.0006612167
82	0xbd6e28ef	-0.058144506
83	0xbe0c8591	-0.13722827
84	0xbe1c58f0	-0.15268302
85	0xbd5a70bc	-0.053330168
86	0x3cf70da0	0.030157864
87	0xbc9440fa	-0.01809739
88	0xbeca4fb7	-0.39513943
89	0x3d73cbf2	0.05952067
90	0xbd864757	-0.06556576
91	0xb7282380	-1.0021846e-05
92	0x3bee747e	0.0072770705
93	0x388f2982	6.826503e-05
94	0x3a65234e	0.00087409175
95	0xbed84927	-0.4224331
96	0x3c70fc93	0.014708656
97	0x3e318c1b	0.17338602
98	0x3d11e097	0.035614576
99	0xbe44f3e2	-0.19233659
100	0xbd03a024	-0.032135144
101	0xbd0ad356	-0.033892952
102	0x3bd4da31	0.006495737
103	0xbd2c12e9	-0.04201022
104	0xbd51a8e8	-0.051186472
105	0x3e809edf	0.2512121
106	0xbc304735	-0.010759165
107	0xba054250	-0.00050834287
108	0xbbb259a1	-0.0054428135
109	0x3cc7ef34	0.024406053
110	0x3d034054	0.03204377
111	0x3bb5af97	0.0055446136
112	0xbf00dd81	-0.5033799
113	0x3dd23583	0.10264113
114	0xbd2828dd	-0.041054595
115	0x3d65b346	0.05607917
116	0xbe51e6e9	-0.20498241
117	0xbde57603	-0.112041496
118	0xbd5dba31	-0.054132644
119	0xbdb97ec3	-0.09057381
120	0xbd427e51	-0.047483746
121	0xbad13dbb	-0.0015963832
122	0x3e3f7c9d	0.1869988
123	0x3c988137	0.018616302
124	0x3e86650d	0.2624897
125	0xbdaf71f5	-0.085666575
126	0xbc68172c	-0.014165681
127	0xbac96868	-0.0015366198
128	0x3dddbce3	0.10827043
129	0xbc8572ef	-0.016290156
130	0x3c6ef13c	0.014583882
131	0x3a837b93	0.0010031335
132	0xbc9d4b09	-0.019200819
133	0x3a828035	0.0009956422
134	0x3da36e43	0.07980015
135	0x3d3464f1	0.044041578
136	0xbcad253a	-0.021135915
137	0x3db07fd1	0.08618129
138	0x3d1b9404	0.037982956
139	0xbdc7bd5a	-0.09752913
140	0x3c1952d3	0.009358126
141	0xbcdb603c	-0.026779287
142	0xba884c83	-0.0010398779
143	0xbe5dc7db	-0.2165827
144	0xbdaab979	-0.08336157
145	0x3ddb6d28	0.10714179
146	0x3d231463	0.039814364
147	0xbd7f9717	-0.06239995
148	0x3de517a4	0.1118615
149	0xbab32338	-0.0013667112
150	0xbe055e4b	-0.13024251
151	0x3ced52e4	0.02897019
152	0x3e1755c0	0.14778805
153	0xbe28c79c	-0.16482395
154	0xbdb525e5	-0.088451184
155	0x3db8055d	0.08985398
156	0x397a0846	0.0002384494
157	0xbd456ff3	-0.048202466
158	0xb84b0a9a	-4.8408845e-05
159	0x3d82d8e8	0.06389028
160	0xba172d4e	-0.0005766944
161	0x3d7e2a9d	0.062052358
162	0x3dbf204b	0.09332331
163	0x3be19b88	0.006884996
164	0xbcff6abf	-0.03117883
165	0xbc6f0b8b	-0.014590154
166	0xbc2c6abd	-0.010523495
167	0xbcac2295	-0.021012584
168	0x3d7bf270	0.061510503
169	0x3dfc573c	0.12321326
170	0xbea933d1	-0.33047345
171	0xbda1af32	-0.07894744
172	0x3e022ec9	0.1271316
173	0x3d24f4fb	0.040272694
174	0x3d188298	0.03723392
175	0x3db0f2eb	0.08640083
176	0x3d245edd	0.04012953
177	0x3c4c141b	0.012455965
178	0xb9015196	-0.00012332792
179	0x3e0e32a7	0.1388651
180	0xbd11dd16	-0.035611235
181	0x39dda7b2	0.00042277348
182	0x3d51cd23	0.051221024
183	0xbe9731d4	-0.29530203
184	0xbd6888a0	-0.05677092
185	0xbd013370	-0.031543195
186	0x3c9000f2	0.017578576
187	0x3d3eb571	0.046559755
188	0x3dc66c8a	0.09688671
189	0x3d248d01	0.040173534
190	0xbd5056ac	-0.050863907
191	0xba1c023e	-0.0005951262
192	0x3c3bd972	0.011465417
193	0x3a9fc431	0.0012189207
194	0x3a37a890	0.0007006014
195	0xbda31736	-0.079634115
196	0xbd47450c	-0.048649833
197	0x3e21ad80	0.15788841
198	0x3c60c38e	0.013718499
199	0x3d89f6d5	0.067365326
200	0x3e73c8de	0.23807094
201	0xbd453e44	-0.048155084
202	0xbe4e708b	-0.20160119
203	0xba99274f	-0.0011684689
204	0x3d7eda03	0.06221963
205	0xbe819d31	-0.2531524
206	0x3d53dd59	0.051724765
207	0xbd2bcd62	-0.041943915
208	0xbdd043ed	-0.10169206
209	0x3e68cd6c	0.22734612
210	0xbda58732	-0.08082427
211	0x3c9dfa61	0.019284429
212	0xbdb79041	-0.08963061
213	0x3e1688d0	0.14700627
214	0xbd3712c1	-0.04469562
215	0x3dab6765	0.0836933
216	0x3ebb2e45	0.36558738
217	0x3bd8ff1b	0.006622208
218	0xbcb95395	-0.022622863
219	0x3c81fc09	0.01586725
220	0x3daabca6	0.08336763
221	0xb96f11f6	-0.00022799507
222	0x3d310b90	0.043223917
223	0xbcbbfe8a	-0.022948522
224	0x3ea25555	0.31705728
225	0xbbc11a2b	-0.005893012
226	0xbd866765	-0.0656269
227	0xbaec17e0	-0.0018012486
228	0x3c340171	0.010986672
229	0x3d01371a	0.03154669
230	0xbd0482f2	-0.03235144
231	0xbdba0b9e	-0.09084247
232	0xbdd2866a	-0.10279544
233	0x3dfb13ed	0.1225966
234	0xbc53c69f	-0.012925773
235	0x3d369cfc	0.044583306
236	0xbc5fd9c6	-0.013662761
237	0xbe903f94	-0.28173506
238	0xbdf90f04	-0.12161067
239	0x3c2c9e4c	0.010535788
240	0xbe46610d	-0.1937296
241	0xbbbb32b3	-0.005712831
242	0xbca6a130	-0.020340532
243	0xbd4b8868	-0.049690634
244	0xbe041130	-0.12897182
245	0x3d8d09c1	0.06886626
246	0x3de8e0bf	0.11370992
247	0xbdba006f	-0.09082114
248	0x3e05b174	0.13055974
249	0xb8e366a2	-0.0001084332
250	0x3e33f680	0.17574501
251	0xbd46d7e2	-0.048545726
252	0x3e5e23a4	0.21693283
253	0xbe818b1a	-0.2530144
254	0xbd0c5509	-0.034260783
255	0xbe4328ce	-0.19058535

layers.8.bias f4 [50]
0	0x3d7c1f17	0.061553087
1	0xbcae98a1	-0.021313014
2	0xbdd42b46	-0.10359816
3	0x3d1b2dbc	0.037885413
4	0x3c420fa6	0.011844551
5	0x3d0d4392	0.03448827
6	0x3cb81034	0.022468664
7	0xbdaab86b	-0.08335956
8	0xbd9bf8e0	-0.076158285
9	0xbda8e551	-0.08246864
10	0xbd72fa86	-0.05932095
11	0xbcfa1180	-0.030525923
12	0x3cdfaf7d	0.027305359
13	0xbdba04b0	-0.09082925
14	0xbe0d382d	-0.1379096
15	0x3c55606a	0.013023475
16	0xba979640	-0.0011565164
17	0x3c9c19b7	0.01905523
18	0xbca9c62f	-0.020724384
19	0x3e9d6268	0.3073914
20	0xbd12a41b	-0.035801034
21	0xbe7d7034	-0.24749833
22	0x3dc69271	0.096959
23	0x3dc77a3a	0.0974011
24	0xbd99ac32	-0.07503547
25	0x3d7f633a	0.06235049
26	0xbde01b75	-0.10942737
27	0xbd858a7f	-0.06520557
28	0x3dbfd686	0.09367089
29	0x3cd026de	0.025409158
30	0xbcb5b97c	-0.022183172
31	0xbb7f430f	-0.0038949882
32	0xbcd8efcb	-0.02648153
33	0xbd009b5d	-0.031398166
34	0x3d7710cc	0.060318753
35	0xbc820f49	-0.01587643
36	0x3d749403	0.059711467
37	0xbd4951a1	-0.049150113
38	0x3d569e58	0.052397102
39	0xbe1537eb	-0.14572112
40	0x3cd1f560	0.0256297
41	0x3d666cb3	0.056256007
42	0xbcf91cb8	-0.030409202
43	0x3cd494d4	0.025949873
44	0x3cb2d626	0.02183063
45	0xbd8a76aa	-0.067609146
46	0xbcbaad6b	-0.02278777
47	0xbdaaeede	-0.083463416
48	0xbdadcc1c	-0.084861964
49	0xbd3ebb2e	-0.046565227
