models_trunk/brian2/lif.pth (torch, 110344 bytes, 9 tensors)

B f4 [128, 1]
88.80432 101.72445 -11.133754 -17.612787 -17.522707 -105.08596 56.40927 128.06294
-91.71945 15.641933 -97.37554 -23.116142 13.944042 -83.30935 132.12189 -83.45304
8.080404 31.250309 32.8827 -42.697163 -121.45057 45.437435 150.70364 -44.04072
170.00516 -99.800804 -94.41152 -96.44694 -27.995247 80.47224 99.54197 139.69537
23.80131 183.63313 -50.31037 -93.99576 -90.231186 -24.657974 57.577957 -78.88032
214.1742 83.65615 124.71672 13.9678135 -109.57955 54.982853 -10.830566 107.97088
27.634937 -91.46564 -17.974026 14.383298 -57.210945 153.6806 59.56777 -87.76703
-83.993706 47.802498 22.16733 -12.404018 126.92878 146.9729 57.86507 -17.492357
80.900505 9.86441 37.945286 169.90016 -44.045124 2.9750876 -45.011726 221.84587
120.45975 -82.576385 -80.61724 -304.5184 -37.534542 18.278479 -126.519714 -53.806072
124.8983 -23.614191 60.114063 74.66301 43.886395 66.46855 -50.209393 73.30659
24.911171 -35.198833 -68.06759 54.559944 13.770641 25.160053 -58.161854 15.946282
89.83337 -88.66684 -10.976569 47.386223 -8.333733 -63.036694 -135.80351 -140.71239
109.83436 37.922585 180.7245 152.46729 165.395 120.86845 8.654714 -16.17873
69.084206 8.040832 -94.75275 -38.093838 -29.688444 84.347626 -111.264626 -19.122583
9.700708 130.87047 -71.358604 123.23397 143.68774 -26.454866 91.97896 -25.54287
00000000: d09b b142 eb72 cb42 db23 32c1 fde6 8cc1
00000010: 812e 8cc1 032c d2c2 18a3 6142 1d10 0043
00000020: 5c70 b7c2 5c45 7a41 47c0 c2c2 dced b8c1
00000030: cc1a 5f41 639e a6c2 341f 0443 f5e7 a6c2
00000040: 5649 0141 a200 fa41 e387 0342 e5c9 2ac2
00000050: b1e6 f2c2 efbf 3542 22b4 1643 b329 30c2
00000060: 5201 2a43 039a c7c2 b3d2 bcc2 d5e4 c0c2
00000070: 44f6 dfc1 c9f1 a042 7d15 c742 04b2 0b43
00000080: 1569 be41 15a2 3743 d23d 49c2 d4fd bbc2
00000090: 5e76 b4c2 8843 c5c1 d44f 6642 b9c2 9dc2
000000a0: 982c 5643 f34f a742 f66e f942 2a7c 5f41
000000b0: bb28 dbc2 71ee 5b42 004a 2dc1 17f1 d742
000000c0: 5a14 dd41 68ee b6c2 ceca 8fc1 fd21 6641
000000d0: 02d8 64c2 3cae 1943 6545 6e42 b888 afc2
000000e0: c7fc a7c2 c235 3f42 b156 b141 dc76 46c1
000000f0: 89db fd42 10f9 1243 d575 6742 59f0 8bc1
00000100: 0fcd a142 a0d4 1d41 f9c7 1742 71e6 2943
00000110: 352e 30c2 d667 3e40 020c 34c2 8bd8 5d43
00000120: 64eb f042 1c27 a5c2 073c a1c2 5b42 98c3
00000130: 5f23 16c2 533a 9241 180a fdc2 6b39 57c2
00000140: eecb f942 dde9 bcc1 cd74 7042 7653 9542
00000150: ab8b 2f42 e6ef 8442 6bd6 48c2 f99c 9242
00000160: 144a c741 9bcb 0cc2 9b22 88c2 623d 5a42
00000170: 8c54 5c41 ca47 c941 bda5 68c2 f923 7f41
00000180: afaa b342 6c55 b1c2 07a0 2fc1 7e8b 3d42
00000190: f856 05c1 9325 7cc2 b3cd 07c3 5fb6 0cc3
000001a0: 31ab db42 bab0 1742 79b9 3443 a077 1843
000001b0: 1f65 2543 a5bc f142 b579 0a41 0a6e 81c1
000001c0: 1d2b 8a42 3fa7 0041 6881 bdc2 1760 18c2
000001d0: ef81 edc1 fcb1 a842 7d87 dec2 0dfb 98c1
000001e0: 1a36 1b41 d7de 0243 9bb7 8ec2 cb77 f642
000001f0: 10b0 0f43 91a3 d3c1 3af5 b742 cc57 ccc1

layers.0.weight f4 [60, 256]
0.055063587 0.061586022 0.023904776 -0.07626998 -0.070034385 -0.19087209 0.14422198 0.15057863
-0.03944119 0.07141338 -0.042118605 -0.017592102 0.015403644 -0.122949906 0.11751314 -0.15991347
0.076643266 0.05274378 0.055013653 -0.041687272 -0.23206021 0.096744604 0.26763985 -0.09906721
-0.06866116 -0.06181545 -0.056746695 -0.028418366 -0.02964689 0.17647047 0.14625943 0.16071118
0.038651936 -0.13909268 -0.12408376 -0.11865058 -0.058157116 -0.05396363 0.15207654 -0.26878044
-0.005276114 0.131488 0.20462064 0.04969626 -0.18948387 0.105011836 0.01314103 0.1386461
0.038153198 -0.051060982 0.010181553 0.09543346 -0.12894195 0.3026283 0.15316169 -0.097283855
-0.17134237 0.03641349 0.05464476 -0.07223109 0.18108837 0.24542044 0.21731414 -0.050341174
0.24366356 0.07132734 0.022755047 -0.045932207 -0.013327281 0.044418596 -0.08652443 -1.8994281
0.15768114 -0.19686604 -0.24625662 -1.8438035 -0.028686017 0.031835463 -0.17106402 -0.15415803
0.12522411 -0.03156267 0.1281813 0.21543686 0.062291373 0.18102114 -0.14184915 0.18422505
0.019830208 0.023074673 -0.22215633 0.10495922 -0.018067557 0.03206997 -0.22822152 0.032275457
0.101897284 -0.052096818 -0.004846069 0.13564919 -0.00079076894 -0.14974996 -0.044127055 -0.063046224
0.17022972 0.068821274 -0.25575888 0.3320745 0.25535282 0.15247728 0.013005855 -0.049493887
0.28639284 0.08133564 -0.09551287 -0.028023181 -0.029539382 0.18993211 -0.18924832 -0.046266746
0.052444316 0.16788904 -0.18930924 0.208387 0.13274086 -0.058602024 0.10592465 -0.09398679
-0.005678096 0.05951129 0.13014835 0.047997713 0.055541027 0.07606318 0.13122296 -0.129606
-0.08509359 0.082736775 0.017952021 0.104500376 0.073498756 -0.08038842 -0.10116892 -0.030967679
0.047811802 0.1325691 0.10308988 0.16929954 -0.09937868 0.15534967 -0.025870219 0.10467221
-0.36106163 0.0023345272 0.00795679 -0.02719276 0.13622738 -0.096398 0.029695705 -0.016692284
0.10135246 0.26133993 0.15415594 -0.040298294 -0.048239946 0.13117047 0.17455305 -0.036038853
-2.9560516 -0.039535698 -0.16377608 0.043939162 0.10519919 0.08413359 0.017080046 0.12684675
0.10019548 0.011503728 0.12947996 0.13155 0.09628155 -0.1046832 0.11721411 -0.09812085
-0.11390963 0.14465626 0.08578299 0.07784371 -0.19895425 -0.044616297 0.110739164 0.057198815
-0.05049741 0.13360222 0.095932655 -0.350741 0.20284255 0.079081066 0.11997374 -2.1714942
-0.14951159 -0.05491201 -0.07026693 -2.67347 0.07744086 0.077964224 -0.19494177 0.10554935
-0.17876746 0.02633676 0.10982616 -0.060929917 0.11835766 0.10177159 0.14193933 -0.013420079
0.1149865 0.13976772 0.022343688 0.14776199 0.04514796 0.0931936 0.15627797 0.026302554
0.011301207 -0.0075254026 0.082300104 0.21847919 0.08087577 0.12923464 -0.08677783 -0.07117632
0.09634274 0.16821146 0.07195751 -0.13378675 -0.3873408 -0.063894495 0.07056376 0.09002254
0.045027755 0.11842733 0.04567478 0.11547171 0.08929308 0.0024861584 0.07205139 0.07569552
0.13147756 -0.17901361 -0.01416934 -0.19260804 -0.03876639 0.13048227 -0.0446195 0.031338442
00000000: 5b8a 613d a041 7c3d f3d3 c33c 6f33 9cbd
00000010: 306e 8fbd f973 43be edae 133e 4931 1a3e
00000020: 168d 21bd 2e41 923d 8f84 2cbd 501d 90bc
00000030: 915f 7c3c 29cd fbbd bbaa f03d 5bc0 23be
00000040: 25f7 9c3d dd09 583d ff55 613d 46c0 2abd
00000050: 31a1 6dbe 0922 c63d 1708 893e c0e3 cabd
00000060: 399e 8cbd 3332 7dbd 396f 68bd a2cd e8bc
00000070: 09de f2bc adb4 343e 08c5 153e 7991 243e
00000080: 7e51 1e3d 506e 0ebe a01f febd 13ff f2bd
00000090: 2836 6ebd f808 5dbd f4b9 1b3e 979d 89be
000000a0: 41e3 acbb caa4 063e 1388 513e 4e8e 4b3d
000000b0: 0f08 42be 7210 d73d 7a4d 573c 3ef9 0d3e
000000c0: 8746 1c3d 5225 51bd 87d0 263c 9e72 c33d
000000d0: 5c09 04be 19f2 9a3e 6bd6 1c3e c23c c7bd
000000e0: 6074 2fbe 5026 153d 2fd3 5f3d e5ed 93bd
000000f0: 3b6f 393e 7f4f 7b3e 9987 5e3e 8c32 4ebd
00000100: f182 793e 1214 923d cb68 ba3c 6923 3cbd
00000110: ab5a 5abc 46f0 353d b833 b1bd 7620 f3bf
00000120: 2a77 213e 4097 49be b22a 7cbe c101 ecbf
00000130: f0fe eabc e765 023d 682b 2fbe 9adb 1dbe
00000140: c03a 003e dc47 01bd f541 033e 7b9b 5c3e
00000150: 3d25 7f3d 9b5d 393e e740 11be 7ea5 3c3e
00000160: f672 a23c 1907 bd3c f37c 63be dcf4 d63d
00000170: 6a02 94bc cd5b 033d e7b2 69be 4533 043d
00000180: 86af d03d 7963 55bd c6cb 9ebb 9fe7 0a3e
00000190: 9b4b 4fba 0e58 19be 92be 34bd 611e 81bd
000001a0: b350 2e3e 2bf2 8c3d d4f2 82be ab05 aa3e
000001b0: 9bbd 823e 0123 1c3e 8216 553c 1aba 4abd
000001c0: 15a2 923e 4d93 a63d 409c c3bd df90 e5bc
000001d0: 93fc f1bc 907d 423e 50ca 41be 3382 3dbd
000001e0: dacf 563d 1beb 2b3e 48da 41be 6763 553e
000001f0: 38ed 073e ad08 70bd 06ef d83d 257c c0bd
00000200: 520f babb 1cc2 733d 9c45 053e 4099 443d
00000210: fd7e 633d 03c7 9b3d 505f 063e 6fb7 04be
00000220: 8c45 aebd e671 a93d 1e10 933c 4b04 d63d
00000230: 8486 963d afa2 a4bd a731 cfbd eeaf fdbc
00000240: 4fd6 433d 32c0 073e c920 d33d dc5c 2d3e
00000250: 0d87 cbbd fc13 1f3e c8ed d3bc 625e d63d
00000260: 12dd b8be defe 183b 325d 023c 5ac3 debc
00000270: 317f 0b3e 516c c5bd 6844 f33c 42be 88bc
00000280: e191 cf3d 59ce 853e 0edb 1d3e d30f 25bd
00000290: 4097 45bd 8d51 063e 09be 323e 7a9d 13bd
000002a0: f32f 3dc0 2ff0 21bd ebb4 27be 8df9 333d
000002b0: ac72 d73d 3b4e ac3d 74eb 8b3c 1de4 013e
000002c0: 4a33 cd3d 227a 3c3c 6596 043e 0bb5 063e
000002d0: 432f c53d 2564 d6bd f40d f03d 96f3 c8bd
000002e0: 7449 e9bd c520 143e feae af3d 866c 9f3d
000002f0: aaba 4bbe 94bf 36bd 37cb e23d 4e49 6a3d
00000300: 5fd6 4ebd 05cf 083e 5778 c43d 5394 b3be
00000310: f5b5 4f3e 41f5 a13d cbb4 f53d c3f9 0ac0
00000320: 9119 19be 6aeb 60bd 1ce8 8fbd 221a 2bc0
00000330: 5099 9e3d b5ab 9f3d d19e 47be 422a d83d
00000340: d10e 37be 30c0 d73c 8aec e03d a691 79bd
00000350: 8065 f23d a06d d03d 8b58 113e e4df 5bbc
00000360: 0b7e eb3d 451f 0f3e 1c0a b73c eb4e 173e
00000370: 11ed 383d 49dc be3d 5507 203e 7478 d73c
00000380: b328 393c a797 f6bb f58c a83d 02b9 5f3e
00000390: 32a2 a53d 1656 043e 93b8 b1bd e4c4 91bd
000003a0: 584f c53d a03f 2c3e 765e 933d 65ff 08be
000003b0: 8951 c6be 1edb 82bd bc83 903d bd5d b83d
000003c0: 066f 383d 078a f23d 7a15 3b3d 6f7c ec3d
000003d0: 4adf b63d d1ee 223b ae8f 933d 4106 9b3d
000003e0: 0ea2 063e 584f 37be 8526 68bc 0b3b 45be
000003f0: 82c9 1ebd 259d 053e f0c2 36bd bd5c 003d

layers.0.bias f4 [60]
0.014987276 -0.22480874 -0.0526727 0.15063204 -0.02103978 -0.15009841 0.048081305 0.0431283
-0.013863085 -0.04709862 -0.026342383 0.1757787 0.038154308 -0.17965524 0.20097895 -0.038616803
-0.026844751 -0.031577688 -0.1266407 -0.07446369 -0.08163681 -0.22513762 -0.09311955 -0.06831583
-0.11857437 -0.003740374 -0.052020214 -0.100829795 0.10726022 -0.008929184 0.01612527 -0.017312286
0.038379934 0.04637429 0.13734312 -0.13176267 0.13612966 0.012619523 -0.12157745 0.05313988
0.050063413 0.124698415 0.3642875 -0.012721858 0.20085116 -0.044660598 0.11813155 0.019545589
-0.059472475 0.13435976 0.048968945 -0.031588577 0.054627817 -0.01981645 0.1695205 0.0035856941
-0.0072255144 -0.16325435 -0.011368037 -0.170451
00000000: 318d 753c 4334 66be 54bf 57bd 493f 1a3e
00000010: 9e5b acbc 66b3 19be e7f0 443d 4da7 303d
00000020: fe21 63bc 7cea 40bd fbcb d7bc 55ff 333e
00000030: b147 1c3d 8bf7 37be 6dcd 4d3e a72c 1ebd
00000040: 86e9 dbbc 9b57 01bd 1aae 01be 6b80 98bd
00000050: 3331 a7bd 7a8a 66be 76b5 bebd 2be9 8bbd
00000060: 1fd7 f2bd 1021 75bb 2613 55bd da7f cebd
00000070: 3fab db3d b64b 12bc 2419 843c 7fd2 8dbc
00000080: 4734 1d3d f8f2 3d3d ada3 0c3e cbec 06be
00000090: 9365 0b3e 1ec2 4e3c 99fd f8bd 34a9 593d
000000a0: 4b0f 4d3d e261 ff3d e483 ba3e 576f 50bc
000000b0: edab 4d3e 08ee 36bd f4ee f13d 121e a03c
000000c0: 6999 73bd 9b95 093e a993 483d 0663 01bd
000000d0: 6bc1 5f3d 1c56 a2bc c896 2d3e f7fd 6a3b
000000e0: 02c4 ecbb 262c 27be 0141 3abc b58a 2ebe

layers.2.weight f4 [60, 60]
-0.41950616 0.16936688 0.09370239 0.29506868 -0.0031085692 0.16438639 0.41789258 0.104352236
-0.126216 0.47528458 0.01859923 0.23817408 -0.20279618 0.13722421 0.67202353 0.20306198
0.2003136 -0.29509747 0.22221152 -0.14695342 0.14815375 0.009874613 -0.08070696 -0.07046319
-0.09654196 -0.25720805 -0.17336527 0.022550836 -0.061189596 -0.15399788 0.06772923 0.06258707
0.004289254 -0.28705812 0.0026149699 -0.042021696 0.1653011 0.08156844 -0.045202658 -0.42077765
0.015545402 0.00012368376 0.034628488 0.06255173 -0.09257875 -0.14784929 0.090033956 -0.3285971
-0.39847216 -0.37382382 -0.014066615 -0.13799001 -0.017741593 0.1471127 -0.1993867 0.74898076
-0.17848639 0.054831725 0.18437666 0.25148624 0.08900053 0.4454329 -0.45982385 0.2157983
0.169588 0.15063912 0.20596576 -0.29770222 0.09918054 -0.15144143 0.030319192 -0.26461193
-0.07788193 -0.07039125 -0.35245034 -0.08383776 -0.06031537 0.004394676 0.1521451 0.19669738
0.13299134 -0.42241728 -0.66590947 0.08170756 -0.21316113 0.2114813 -0.15458037 -0.041804556
0.26221502 0.09212757 -0.03730699 0.29224807 -0.0042629335 -0.1654974 0.39623737 -0.13961159
0.027281832 0.16876689 -0.28596345 0.11294863 -0.3014739 0.043556213 -0.09313052 0.13619608
0.011766098 -0.04396998 0.32464993 -0.13679148 -0.11011261 -0.16844198 0.5861236 0.10133173
-0.109580085 -0.3727645 -0.13227826 -0.012041182 0.045312155 0.016730936 0.15618965 0.039498914
-0.16510426 -0.2739462 -0.0046119876 0.14269538 -0.05721228 -0.07721537 0.23654608 0.21805935
0.06382922 0.062448878 -0.08221267 -0.0014112438 0.0070185415 -0.060692094 0.15928154 -0.08493135
0.041885838 -0.4741534 0.010445901 -0.25477782 -0.17386761 0.022201575 -0.27892283 -0.04318622
-0.25565338 -0.33167863 -0.10680074 0.11074246 -0.11989571 0.32157 0.030789962 0.07133456
0.073571555 -0.06656795 0.10709349 0.1447121 0.30872884 0.049210135 0.19619921 -0.07221628
-0.08092124 0.18115817 0.10206268 -0.01332446 0.2765685 0.123996735 -0.012979698 0.26356435
-0.00035383794 0.06148721 -0.110198535 0.34289494 -0.05072689 -0.1839141 -0.36303747 -0.06584086
0.01798255 0.16306151 0.29491162 -0.0071295328 -0.000848352 0.108498044 -0.059878282 -0.1540654
-0.07198918 0.39335176 0.021469582 0.062317874 -0.22860116 0.094626985 0.18436836 -0.14784347
0.038504284 -0.043211345 -0.19560713 0.019055989 -0.04528083 -0.49783206 0.15518217 -0.3523119
0.30637088 0.03245482 -0.33750713 0.53340065 0.04305362 -0.100604035 -0.1572905 0.122411765
-0.25317734 0.19970039 -0.14184248 0.049755685 0.2754401 -0.30732393 0.03703932 -0.14924923
-0.093463756 -0.21631709 0.016487893 0.062416025 -0.2548914 0.021614851 0.26598084 -0.21223007
0.29885414 0.09846122 0.095499694 0.07599202 -0.20620562 -0.0057513705 -0.2613508 0.06701093
0.19404224 -0.23938204 0.31308913 0.052089214 0.04007789 -0.05510749 0.28066355 -0.13332158
-0.15449746 -0.19315544 0.0501632 0.21726288 -0.23827113 0.021345943 0.108823664 0.025464706
-0.009202108 -0.008163485 0.21367756 -0.13391723 -0.02738806 0.05132016 -0.052790143 0.080078036
00000000: 83c9 d6be 836e 2d3e 0ae7 bf3d 3e13 973e
00000010: 23b9 4bbb e854 283e 04f6 d53e a0b6 d53d
00000020: c43e 01be 8058 f33e 6a5d 983c e8e3 733e
00000030: cda9 4fbe 8184 0c3e bc09 2c3f 7bef 4f3e
00000040: 021f 4d3e 0417 97be 6b8b 633e f57a 16be
00000050: 9eb5 173e 21c9 213c b149 a5bd 014f 90bd
00000060: cbb7 c5bd c6b0 83be aa86 31be 88bc b83c
00000070: f1a1 7abd 9fb1 1dbe 9fb5 8a3d a62d 803d
00000080: df8c 8c3b 48f9 92be ea5f 2b3b f11e 2cbd
00000090: b144 293e 5b0d a73d 6c26 39bd 2b70 d7be
000000a0: 24b2 7e3c 1bb1 0139 9ad6 0d3d 1f1b 803d
000000b0: ed99 bdbd ce65 17be b963 b83d e13d a8be
000000c0: 8b04 ccbe d665 bfbe a977 66bc 414d 0dbe
000000d0: d156 91bc b6a4 163e 072c 4cbe 34bd 3f3f
000000e0: 23c5 36be 3b97 603d 3ccd 3c3e cec2 803e
000000f0: e945 b63d c80f e43e 086e ebbe 3bfa 5c3e
00000100: 7aa8 2d3e 2441 1a3e b0e8 523e 6d6c 98be
00000110: 2b1f cb3d 7613 1bbe f45f f83c 377b 87be
00000120: 9080 9fbd 4a29 90bd 5f74 b4be 22b3 abbd
00000130: 400d 77bd 3701 903b edcb 1b3e 0a6b 493e
00000140: e22e 083e 1447 d8be 0b79 2abf 4b56 a73d
00000150: e946 5abe 8e8e 583e 514a 1ebe 413b 2bbd
00000160: 0c41 863e 61ad bc3d 37cf 18bd 8aa1 953e
00000170: 14b0 8bbb 2778 29be a0df ca3e 57f6 0ebe
00000180: 267e df3c 3ad1 2c3e cd69 92be 9c51 e73d
00000190: c95a 9abe 0068 323d 37bb bebd fc76 0b3e
000001a0: 98c6 403c de19 34bd 8438 a63e 1113 0cbe
000001b0: b882 e1bd 0e7c 2cbe 320c 163f 0387 cf3d
000001c0: 866b e0bd fdda bebe f473 07be 6148 45bc
000001d0: 3d99 393d 510f 893c 2ef0 1f3e 9dc9 213d
000001e0: 1711 29be ad42 8cbe 2820 97bb bd1e 123e
000001f0: 6c57 6abd 1823 9ebd 2339 723e f34a 5f3e
00000200: e5b8 823d 65ca 7f3d 1e5f a8bd 7cf9 b8ba
00000210: cbfb e53b 4698 78bd b31a 233e 7df0 adbd
00000220: 7c90 2b3d 3cc4 f2be 4925 2b3c 3d72 82be
00000230: 5a0a 32be 14e0 b53c f9ce 8ebe 09e4 30bd
00000240: 00e5 82be c8d1 a9be 59ba dabd f1cc e23d
00000250: e28b f5bd d3a4 a43e 3b3b fc3c db17 923d
00000260: afac 963d c754 88bd d553 db3d 692f 143e
00000270: b511 9e3e 9190 493d 72e8 483e 21e6 93bd
00000280: 09ba a5bd 8781 393e 3d06 d13d d64e 5abc
00000290: 639a 8d3e 00f2 fd3d cda8 54bc e8f1 863e
000002a0: 5383 b9b9 03da 7b3d c5af e1bd ed8f af3e
000002b0: 00c7 4fbd fa53 3cbe 0ce0 b9be 93d7 86bd
000002c0: 2450 933c 99f9 263e a8fe 963e db9e e9bb
000002d0: f063 5eba 3934 de3d ee42 75bd 52c3 1dbe
000002e0: 106f 93bd 6765 c93e fae0 af3c 0741 7f3d
000002f0: 6c16 6abe cbcb c13d 0fcb 3c3e 4764 17be
00000300: abb6 1d3d 61fe 30bd 3c4d 48be 4e1b 9c3c
00000310: 6478 39bd d8e3 febe 13e8 1e3e 3a62 b4be
00000320: a5dc 9c3e 58ef 043d bccd acbe f28c 083f
00000330: fe58 303d 7d09 cebd c310 21be 05b3 fa3d
00000340: 76a0 81be 427e 4c3e 283f 11be 9ecc 4b3d
00000350: 7c06 8d3e 9059 9dbe 8bb6 173d cad4 18be
00000360: ed69 bfbd 3a82 5dbe 9e11 873c f2a7 7f3d
00000370: 2081 82be a111 b13c a42e 883e d752 59be
00000380: 6903 993e 09a6 c93d 5895 c33d b4a1 9b3d
00000390: 9127 53be fe75 bcbb c6cf 85be 073d 893d
000003a0: 02b3 463e 9120 75be 384d a03e 805b 553d
000003b0: b728 243d 64b8 61bd 22b3 8f3e 7485 08be
000003c0: 9534 1ebe 8aca 45be ed77 4d3d 297a 5e3e
000003d0: 59fd 73be b0dd ae3c f1de de3d 5c9b d03c
000003e0: 70c4 16bc 23c0 05bc 4ace 5a3e 9921 09be
000003f0: ed5c e0bc 1735 523d 7a3a 58bd f4ff a33d

layers.2.bias f4 [60]
0.13290954 0.13946505 -0.05640137 0.16299523 -0.10158108 0.015902273 0.004884807 0.040514734
0.037636638 0.08782495 -0.1316857 -0.056948483 0.13327909 -0.017320381 -0.18798207 -0.0737607
0.023603028 0.08694655 0.06437933 -0.098631755 0.023701223 -0.0064186133 0.09945384 -0.12630583
0.055965383 -0.09312086 -0.09167375 0.124281205 -0.13278703 0.07545802 0.08449039 0.106842205
-0.042952515 0.0038533234 -0.18333931 0.04570179 -0.011788379 0.02978194 0.10538399 0.1936715
-0.2228449 -0.12719338 -0.0859047 0.038463727 -0.064062245 -0.04246597 0.20373401 0.13985234
-0.070564546 0.044341203 -0.010830343 0.1339062 -0.07877145 0.026930759 0.05837325 -0.06815404
0.07199725 0.021344101 0.039763577 0.025322087
00000000: 7019 083e edcf 0e3e 1f05 67bd 39e8 263e
00000010: be09 d0bd 7c45 823c bb10 a03b c7f2 253d
00000020: e028 1a3d 91dd b33d 9ed8 06be d042 69bd
00000030: 507a 083e 79e3 8dbc 5f7e 40be da0f 97bd
00000040: 235b c13c 0811 b23d 4fd9 833d 72ff c9bd
00000050: 1129 c23c 3b53 d2bb 74ae cb3d 5156 01be
00000060: f53b 653d 26b6 bebd 72bf bbbd 2587 fe3d
00000070: 53f9 07be bc89 9a3d 4c09 ad3d 16d0 da3d
00000080: faee 2fbd 0a88 7c3b 4dbd 3bbe cd31 3b3d
00000090: 0c24 41bc 41f9 f33c 90d3 d73d d251 463e
000000a0: 7431 64be fb3e 02be ceee afbd 248c 1d3d
000000b0: 1133 83bd ccf0 2dbd a69f 503e 7435 0f3e
000000c0: 2584 90bd 1f9f 353d c071 31bc b51e 093e
000000d0: ed52 a1bd e59d dc3c ca18 6f3d 5894 8bbd
000000e0: 4b73 933d d3d9 ae3c 22df 223d 4470 cf3c

layers.4.weight f4 [60, 60]
-0.1798207 0.16627301 -0.086866006 0.02270767 -0.06951466 -0.16036485 0.122200824 0.13289249
-0.02000573 -0.23416759 0.13657016 -0.13785739 -0.07618816 -0.021514857 0.080671966 -0.076376006
-0.046307493 -0.1926067 -0.033615906 0.19016118 -0.09836726 0.23854403 0.07939807 -0.20568216
0.012306454 0.07743066 -0.32845497 -0.030213756 -0.24916662 -0.028596252 0.043419845 -0.018545862
-0.29892954 0.2152512 -0.044388957 0.045802675 -0.2934506 0.02820282 0.050473694 -0.01136776
0.012150385 -0.1613768 0.12380509 -0.059237372 0.2447088 -0.01915463 0.06938678 -0.031972643
-0.10452997 0.091091014 0.21768773 -0.11702137 0.1328954 -0.24626912 -0.12090455 0.24547109
-0.08072119 -0.23585378 -0.07352954 0.103790514 0.1296591 -0.09255303 -0.055420496 0.13963698
-0.066936985 0.10605152 -0.14842325 0.156366 0.08021729 -0.13660696 -0.019666959 -0.1321338
0.16855422 0.050975747 -0.12535895 0.116692245 0.14554618 0.16765356 0.028261594 0.24873817
-0.017463518 -0.11281577 -0.08576936 -0.2872313 0.14763336 -0.0756129 -0.062512085 0.28532302
-0.01945007 0.04963724 0.09736712 0.06404402 -0.011114771 -0.07672454 -0.0444817 0.055338614
0.21875326 0.19877653 0.00067751465 -0.0661612 0.17635849 -0.07962687 -0.30046383 0.039258424
0.034242034 -0.06981785 -0.22392568 -0.08657069 0.14575104 0.10352309 -0.0677414 0.31354737
0.09930887 -0.13716698 -0.25135145 -0.12002273 -0.16902888 0.048659492 0.22557096 -0.0393955
0.043297127 0.087155595 0.04039856 -0.123627536 0.08180803 -0.20387235 -0.12345339 0.39490828
0.0056107496 0.20790346 -0.23598708 0.09390671 0.02588225 0.16522169 0.17588434 0.072389744
0.018157857 0.003050235 0.1531238 -0.029841233 0.18127722 0.042722955 0.03396857 0.027173618
0.09940382 0.31825024 -0.31253943 -0.00087978865 0.027714074 0.25417146 -0.18557467 0.03929116
-0.10529419 0.11492196 -0.0259086 -0.046750538 -0.0028794354 -0.13855873 -0.1322917 -0.12005103
0.01447392 0.03647353 -0.12680006 -0.0071845893 -0.009406678 0.1954348 -0.15985894 0.030423915
-0.23535022 0.2254648 0.16258308 0.15348202 -0.143042 0.19125187 0.14504898 -0.112821005
0.04919086 0.1277488 0.020779978 0.00713823 0.23280796 0.024011096 0.15792355 -0.17970283
-0.1171373 0.11389235 0.044295385 0.06695751 -0.025314089 -0.017819768 -0.0728331 -0.17651236
-0.11797589 0.22575131 -0.16169135 -0.21116012 -0.16751039 -0.18021266 -0.09884376 0.048678197
0.10667724 -0.030617628 0.1112919 -0.18662992 -0.0013378857 -0.014922255 -0.08652627 -0.028161954
0.18250084 -0.17720674 0.1950329 -0.052390654 0.06947194 0.00083092746 0.21733928 0.08840015
-0.1787204 0.039580643 -0.23189063 0.0065460606 -0.03676621 0.11937518 0.099754326 0.22791986
-0.03851731 0.040493026 0.07002142 -0.14799397 -0.11823926 -0.06401772 0.074312896 -0.047536045
-0.10785079 -0.18064457 0.04537156 0.38744038 0.035052985 -0.1843656 0.13851897 0.0395434
-0.30913454 -0.08473733 -0.08123046 -0.29826882 -0.0051935134 0.23244934 0.034800716 -0.060315534
-0.16593531 -0.20035785 -0.18035743 0.15949653 0.030451654 0.07025958 0.15012547 -0.06787113
00000000: eb22 38be 7943 2a3e cee6 b1bd 7005 ba3c
00000010: b45d 8ebd af36 24be 6d44 fa3d f814 083e
00000020: 0fe3 a3bc a1c9 6fbe 0cd9 0b3e 7d2a 0dbe
00000030: 8a08 9cbd ed3f b0bc 5837 a53d 066b 9cbd
00000040: edac 3dbd b13a 45be d5b0 09bd 9db9 423e
00000050: c674 c9bd e344 743e 759b a23d 589e 52be
00000060: 02a1 493c f793 9e3d 402b a8be d782 f7bc
00000070: 8925 7fbe b042 eabc 02d9 313d 7eed 97bc
00000080: 4b0d 99be d06a 5c3e 32d1 35bd 969b 3b3d
00000090: 283f 96be 9a09 e73c 81bd 4e3d d73f 3abc
000000a0: 6912 473c f63f 25be 868d fd3d e3a2 72bd
000000b0: f294 7a3e 2cea 9cbc a81a 8e3d bff5 02bd
000000c0: cf13 d6bd ed8d ba3d 88e9 5e3e e6a8 efbd
000000d0: bb15 083e f92d 7cbe ce9c f7bd c65c 7b3e
000000e0: 2751 a5bd a783 71be a896 96bd 1f90 d43d
000000f0: 5bc5 043e 718c bdbd 9a00 63bd fffc 0e3e
00000100: 4216 89bd 8a31 d93d 44fc 17be 691e 203e
00000110: f648 a43d b2e2 0bbe 9a1c a1bc 154e 07be
00000120: 7a99 2c3e f2cb 503d 195e 00be 58fc ee3d
00000130: 0f0a 153e 60ad 2b3e dc84 e73c 38b5 7e3e
00000140: a70f 8fbc f40b e7bd d9a7 afbd fb0f 93be
00000150: 332d 173e f0da 9abd 5606 80bd dc15 923e
00000160: c155 9fbc 6b50 4b3d 6a68 c73d 8329 833d
00000170: ba1a 36bc c121 9dbd 7132 36bd beaa 623d
00000180: db00 603e 138c 4b3e 3d9b 313a 867f 87bd
00000190: 5297 343e 6a13 a3bd 65d6 99be 71cd 203d
000001a0: 6041 0c3d a9fc 8ebd c64c 65be f94b b1bd
000001b0: c33f 153e ea03 d43d 01bc 8abd 4889 a03e
000001c0: 7362 cb3d 8075 0cbe 23b1 80be 7ace f5bd
000001d0: e815 2dbe 2d4f 473d 13fc 663e 2d5d 21bd
000001e0: 5458 313d a27e b23d f678 253d 6f30 fdbd
000001f0: f88a a73d eac3 50be 22d5 fcbd 6b31 ca3e
00000200: 61da b73b a5e4 543e 99a6 71be 2952 c03d
00000210: 0307 d43c e02f 293e 061b 343e 1341 943d
00000220: c9bf 943c 74e6 473b 7ccc 1c3e 9a75 f4bc
00000230: bca0 393e 44fe 2e3d a122 0b3d 359b de3c
00000240: 3b94 cb3d b2f1 a23e 2b05 a0be 9ea1 66ba
00000250: a008 e33c c322 823e 4907 3ebe c4ef 203d
00000260: 7ba4 d7bd 345c eb3d 463e d4bc 7e7d 3fbd
00000270: e9b4 3cbb 57e2 0dbe 7a77 07be 50dd f5bd
00000280: 0524 6d3c 4565 153d e0d7 01be b46c ebbb
00000290: 781e 1abc 0f20 483e 10b2 23be 933b f93c
000002a0: a6ff 70be 3fe0 663e 2e7c 263e 642a 1d3e
000002b0: 9a79 12be 88d7 433e b887 143e b30e e7bd
000002c0: 5b7c 493d 95d0 023e c63a aa3c d0e7 e93b
000002d0: 3665 6e3e ebb2 c43c b6b6 213e 0504 38be
000002e0: aee5 efbd 6440 e93d 146f 353d 0521 893d
000002f0: 7e5f cfbc c3fa 91bc 8529 95bd a8bf 34be
00000300: 589d f1bd 5a2b 673e 6b92 25be 5c3a 58be
00000310: d887 2bbe ab89 38be 996e cabd ca62 473d
00000320: 9979 da3d d2d1 fabc 02ed e33d ea1b 3fbe
00000330: ff5b afba 797c 74bc af34 b1bd e6b3 e6bc
00000340: 80e1 3a3e af75 35be b4b6 473e 9597 56bd
00000350: 4e47 8e3d 99d2 593a 308e 5e3e 230b b53d
00000360: 7b02 37be 501f 223d bd74 6dbe 5680 d63b
00000370: 2a98 16bd f97a f43d ff4b cc3d d363 693e
00000380: 54c4 1dbd 04dc 253d 6467 8f3d bb8b 17be
00000390: 6d27 f2bd b91b 83bd 5c31 983d 28b5 42bd
000003a0: e0e0 dcbd e4fa 38be 87d7 393d 965e c63e
000003b0: b893 0f3d 56ca 3cbe ebd7 0d3e 43f8 213d
000003c0: e246 9ebe c48a adbd 285c a6bd b1b6 98be
000003d0: 592e aabb 3307 6e3e 328b 0e3d 6c0d 77bd
000003e0: f2ea 29be 9c2a 4dbe 9eaf 38be 0f53 233e
000003f0: bf75 f93c 41e4 8f3d 7eba 193e 0500 8bbd

layers.4.bias f4 [60]
0.03567846 -0.07765246 -0.05756176 -0.17271742 -0.0010327719 0.08502066 -0.031939756 -0.015604452
0.0170658 0.065225065 0.015165038 -0.045323964 -0.06601666 0.072875835 -0.06559604 0.11461208
-0.021441134 0.115029015 -0.123044394 0.08858709 0.16654539 -0.069605805 -0.0008315247 0.11288942
0.08449024 -0.02186884 -0.036807388 0.15757969 -0.054303333 0.10285383 -0.03297882 0.025467847
-0.08429558 -0.08581091 -0.16091809 -0.058563475 -0.09137298 0.26827288 0.090576395 0.017694749
-0.15376475 0.009567679 0.07010916 0.04603076 0.0098753 -0.08901248 0.106786124 0.0045737266
-0.0787596 -0.10903386 0.022766955 0.065963775 -0.007356978 0.108278565 0.14451629 -0.030821024
-0.024680577 0.14235176 -0.15447193 -0.07938622
00000000: 9423 123d 4108 9fbd e1c5 6bbd d6dc 30be
00000010: 135e 87ba 501f ae3d 43d3 02bd d1a9 7fbc
00000020: 94cd 8b3c b894 853d c876 783c 9fa5 39bd
00000030: be33 87bd ed3f 953d 3757 86bd bdb9 ea3d
00000040: 51a5 afbc 5594 eb3d b3fe fbbd 266d b53d
00000050: e08a 2a3e 7d8d 8ebd aefa 59ba 9132 e73d
00000060: 3809 ad3d 4826 b3bc 58c3 16bd 925c 213e
00000070: 2c6d 5ebd 07a5 d23d cd14 07bd f2a1 d03c
00000080: 29a3 acbd a1bd afbd b6c7 24be 41e0 6fbd
00000090: c221 bbbd 105b 893e 1e80 b93d 94f4 903c
000000a0: 8274 1dbe c1c1 1c3c 6495 8f3d c08a 3c3d
000000b0: 03cc 213c 2d4c b6bd afb2 da3d 33df 953b
000000c0: b74c a1bd 254d dfbd c481 ba3c 0418 873d
000000d0: ce12 f1bb 27c1 dd3d 14fc 133e 5f7c fcbc
000000e0: ec2e cabc a9c4 113e e42d 1ebe 3e95 a2bd

layers.6.weight f4 [65, 60]
-0.0011085522 0.0024373957 0.00364439 0.0022755729 0.0012946546 0.0046660895 0.0018042864 -0.0030161645
0.00089268934 -0.0013019596 -0.0027685699 0.00118812 -0.0006342046 -0.002781672 0.005343467 -0.0016765537
-0.0015377679 -0.000776854 0.0022463426 0.00065424206 0.0014180571 0.005831244 -0.00053378707 -0.0020342637
0.001163452 0.0010981321 -0.0029718438 -0.0028948262 -0.0034592065 -0.0034683917 -0.000114926814 0.0020228052
-0.001967971 -0.0073371567 0.0019163585 -0.000948575 0.0018228989 -0.0034176945 -0.0013156828 0.003361626
-0.0008015137 0.0032990428 -0.0016842687 -0.001811299 -0.00015162113 0.0010192948 0.0019349147 -0.001272762
0.002510437 0.00088795135 0.0010926387 0.0036659446 -0.004703743 -0.0020678446 -0.005037717 0.0031169043
-0.00013053969 -0.0032676836 -0.00042391167 -0.0037177145 -0.01738954 0.00095367315 0.04033346 -0.030266244
-0.035817437 0.0058509572 0.022614246 -0.048402093 0.015726097 0.0020457124 0.012899559 0.0010883242
0.014958591 -0.0033755645 -0.007041237 -0.015371402 0.00020148931 -0.017282529 -0.03886637 -0.009559708
-0.009144913 0.03604969 0.032461476 -0.052749805 0.031301044 -0.017823528 0.0062320223 -0.020721372
-0.019363409 0.0033762562 -0.020359823 0.020959869 -0.050766278 -0.022805788 0.017614631 0.021845622
-0.00875379 0.010301026 0.023179227 0.0128026055 -0.010142184 0.018240254 -0.0105495 0.014901334
-0.00976486 -0.018006863 0.042584796 0.00975392 0.0073027 0.014054429 0.021002352 0.008670293
-0.04857609 -0.022229658 -0.03006634 0.03277353 0.010969648 0.02447297 -0.035432566 0.028203009
-0.013454082 0.005751724 0.028471582 0.055940364 0.031387802 0.044555455 -0.0008632719 -0.018193249
-0.001979808 -0.009396791 -0.072267994 -0.009892136 -0.02006417 -0.01879551 0.08395343 -0.0012275943
-0.001887652 -0.0011602804 0.04999623 0.0063689235 0.023247773 0.026420576 -0.033901263 0.012126749
-0.0054547642 -0.00056637544 -0.047056634 -0.0092685195 -0.012681176 -0.03371843 0.0016241535 0.02288251
0.021635711 -0.0666268 0.016122064 -0.022978498 0.024815606 -0.04896395 -0.012153611 0.0264404
0.005651689 0.049068443 -0.0059309974 -0.033485807 0.0046412824 0.023299148 -0.006212014 -0.0044837184
0.025026424 -0.0017397478 0.014763166 0.045344934 -0.02078602 0.010489133 -0.039645165 0.019382467
-0.0146744 -0.04779878 0.017916603 -0.053890165 -0.014682781 0.0055262707 -0.033786353 0.013455445
0.017863179 0.011580618 0.013713348 -0.013696998 -0.037980687 0.0025449223 0.079097345 -0.01753154
0.0014964334 0.009625219 -0.01838407 -0.012091125 0.006829898 0.031277258 0.025283111 0.016013842
-0.050257966 -0.035185676 -0.055491965 -0.050210368 0.04226011 -0.079791605 0.032738145 -0.014113903
-0.045856748 0.023424381 -0.019631198 0.00031067224 0.06885211 -0.0042253975 -0.030737417 0.0111320615
-0.020816466 -0.004666078 0.017192867 -0.038043622 -0.035387654 -0.058795888 0.016327081 -0.0040966063
0.036728263 -0.009818883 -0.011138088 -0.00782549 0.018837007 -0.0015644069 0.0052099787 -0.009639172
-0.018080166 0.0050552795 -0.058462303 -0.021895338 0.034854222 0.028660059 0.037486117 -0.035327062
0.018217312 -0.030232415 0.03623669 -0.021079358 0.0027472782 -0.00029366562 0.050601136 0.02801175
-0.036090728 0.06472707 -0.043209214 -0.0045837457 0.018015726 0.042533927 -0.01612812 -0.032505646
00000000: d74c 91ba b7bc 1f3b b8d6 6e3b c721 153b
00000010: 66b1 a93a ffe5 983b ce7d ec3a d8aa 45bb
00000020: 5e03 6a3a 84a6 aaba e570 35bb b1ba 9b3a
00000030: c040 26ba b64c 36bb 4018 af3b cfbf dbba
00000040: ee8e c9ba caa5 4bba 6037 133b 7181 2b3a
00000050: 1ade b93a 0514 bf3b d8ed 0bba 4851 05bb
00000060: f97e 983a 33ef 8f3a 44c3 42bb 20b7 3dbb
00000070: dbb3 62bb f54d 63bb dd04 f1b8 0a91 043b
00000080: 13f9 00bb 886c f0bb 522e fb3a caa9 78ba
00000090: 56ee ee3a 66fb 5fbb fd72 acba ba4e 5c3b
000000a0: ad1c 52ba c134 583b aec2 dcba 1c69 edba
000000b0: 7dfc 1eb9 dc99 853a f79c fd3a ced2 a6ba
000000c0: 2586 243b 68c5 683a df36 8f3a 5840 703b
000000d0: db21 9abb ad84 07bb 6f13 a5bb fa44 4c3b
000000e0: 7be1 08b9 a226 56bb 7640 deb9 e6a4 73bb
000000f0: 8274 8ebc ecff 793a b334 253d eaf0 f7bc
00000100: 4eb5 12bd 63b9 bf3b 8341 b93c 4641 46bd
00000110: 04d4 803c 5c11 063b ac58 533c 1aa6 8e3a
00000120: e114 753c 9338 5dbb 2dba e6bb 55d8 7bbc
00000130: e046 5339 1794 8dbc 5832 1fbd 52a0 1cbc
00000140: 8cd4 15bc d7a8 133d 53f6 043d 2e10 58bd
00000150: 8635 003d a602 92bc fe35 cc3b debf a9bc
00000160: 03a0 9ebc 2e44 5d3b a5c9 a6bc 08b4 ab3c
00000170: 4df0 4fbd 34d3 babc 8f4c 903c 97f5 b23c
00000180: 0e6c 0fbc a2c5 283c 5de2 bd3c 05c2 513c
00000190: 672b 26bc 966c 953c cfd7 2cbc ba24 743c
000001a0: cbfc 1fbc 2183 93bc 656d 2e3d e8ce 1f3c
000001b0: 7d4b ef3b 8c44 663c 200d ac3c d80d 0e3c
000001c0: b9f7 46bd f91a b6bc af4d f6bc 893d 063d
000001d0: 0aba 333c 8a7b c83c bd21 11bd ff09 e73c
000001e0: 836e 5cbc f578 bc3b 3c3d e93c b921 653d
000001f0: 7f90 003d c87f 363d 324d 62ba 020a 95bc
00000200: abbf 01bb 00f5 19bc 3e01 94bd a012 22bc
00000210: 9d5d a4bc 0bf9 99bc c7ef ab3d 3be7 a0ba
00000220: 176b f7ba 8d14 98ba d9c8 4c3d 67b2 d03b
00000230: 1d72 be3c f76f d83c 0ddc 0abd 46af 463c
00000240: e1bd b2bb d078 14ba 75be 40bd fdda 17bc
00000250: b5c4 4fbc 561c 0abd 8ce1 d43a 1a74 bb3c
00000260: 603d b13c a273 88bd 6b12 843c 673d bcbc
00000270: 194a cb3c 6c8e 48bd f01f 47bc 8a99 d83c
00000280: ce31 b93b fefb 483d d058 c2bb 6a28 09bd
00000290: e615 983b dbdd be3c 268e cbbb 28ec 92bb
000002a0: 3704 cd3c 4008 e4ba 35e1 713c 9cbb 393d
000002b0: 7247 aabc 9dda 2b3c f862 22bd fbc7 9e3c
000002c0: e56c 70bc a7c8 43bd d7c5 923c efbb 5cbd
000002d0: 0c90 70bc b815 b53b 8f63 0abd 3a74 5c3c
000002e0: cd55 923c a2bc 3d3c f3ad 603c 6069 60bc
000002f0: a391 1bbd b6c8 263b cafd a13d 4e9e 8fbc
00000300: f923 c43a 18b3 1d3c 309a 96bc db19 46bc
00000310: 56cd df3b 951c 003d 871e cf3c 762f 833c
00000320: 4cdb 4dbd db1e 10bd 8b4b 63bd 63a9 4dbd
00000330: f018 2d3d c869 a3bd 6f18 063d 003e 67bc
00000340: 49d4 3bbd 7de4 bf3c 9bd1 a0bc b9e1 a239
00000350: 5602 8d3d 3475 8abb 09cd fbbc 4063 363c
00000360: 4b87 aabc e6e5 98bb 0ed8 8c3c a1d3 1bbd
00000370: a5f2 10bd f5d3 70bd 5fc0 853c d33c 86bb
00000380: 6070 163d 61df 20bc 877c 36bc 7c36 00bc
00000390: 1150 9a3c c90c cdba 78b8 aa3b 9eed 1dbc
000003a0: db1c 94bc c2a6 a53b 2b76 6fbd da5d b3bc
000003b0: 4dc3 0e3d 80c8 ea3c 0b8b 193d 1cb3 10bd
000003c0: 793c 953c f8a9 f7bc ec6c 143d 9eae acbc
000003d0: ae0b 343b 22f7 99b9 2343 4f3d e678 e53c
000003e0: dfd3 13bd a08f 843d 25fc 30bd 3f33 96bb
000003f0: b795 933c 0e38 2e3d 1e1f 84bc a424 05bd

layers.6.bias f4 [65]
-0.099019155 -0.006837261 0.017718092 0.0020092106 -0.0066853166 0.007244917 0.0074713277 0.043084666
0.022500409 0.027158972 0.022630174 -0.02557696 0.0034028841 0.08528413 0.048624318 -0.01000393
-0.020512147 -0.07178105 0.025893917 -0.05118944 0.022739418 -0.0006460896 -0.04407284 0.0447984
0.023279946 0.03417202 0.11916728 -0.005741634 0.027009208 -0.074648894 -0.08627721 0.06069928
0.07472129 0.024118109 0.10250703 -0.008553788 0.013944827 0.013633183 -0.045205846 -0.018266799
-0.010729079 -0.051055938 -0.0072889347 0.019279221 0.12730637 0.023490613 -0.062894866 -0.011308934
-0.07510299 0.060247395 -0.119072616 0.06725168 -0.080696456 0.06679214 0.019665893 -0.14346114
0.05561313 -0.0053257295 0.04875115 0.03940028 -0.067869976 -0.031382795 0.060901877 -0.036932934
0.059620846
00000000: 8eca cabd 1a0b e0bb 8825 913c f6ac 033b
00000010: 8010 dbbb c566 ed3b 0ad2 f43b 8c79 303d
00000020: c752 b83c 7e7c de3c ea62 b93c c686 d1bc
00000030: ec02 5f3b 72a9 ae3d 4b2a 473d 86e7 23bc
00000040: 1709 a8bc f101 93bd 7b1f d43c 05ac 51bd
00000050: 0448 ba3c 575e 29ba b985 34bd 877e 373d
00000060: 96b5 be3c f6f7 0b3d fa0d f43d 5124 bcbb
00000070: 6a42 dd3c 85e1 98bd 1bb2 b0bd cf9f 783d
00000080: 7a07 993d 5793 c53c 35ef d13d 3025 0cbc
00000090: d878 643c b75d 5f3c c429 39bd 41a4 95bc
000000a0: 05c9 2fbc 0820 51bd 04d8 eebb 75ef 9d3c
000000b0: 9a5c 023e 636f c03c 06cf 80bd 1b49 39bc
000000c0: 99cf 99bd f9c5 763d 58dc f3bd 40bb 893d
000000d0: 2f44 a5bd 51ca 883d 5e1a a13c 7ae7 12be
000000e0: 98ca 633d 7583 aebb 49af 473d 3062 213d
000000f0: 6aff 8abd 3f8b 00bd 3f74 793d fd46 17bd
00000100: fd34 743d
