models_trunk/brian2/trunk_model-brian_T2500_S100_LOOP.pth (torch, 269439 bytes, 11 tensors)

B f4 [128, 1]
00000000: fc3c 3a41 789c 8742 ff81 0cc2 b87a 70c1
00000010: 5dda 3f42 6bcb c9c0 92a8 22c3 def7 07c3
00000020: c12b e9c2 c05e 2242 c410 48c3 56ef 0742
00000030: 4508 0243 a595 c7c1 aebb 8542 09e4 c541
00000040: 6de4 b442 cef2 01c3 4d8d cd41 6f65 38c1
00000050: 3a3a 3bc2 ebae eb42 925a 1ec3 1291 c4c1
00000060: 878b 17c3 07a5 5ac2 5580 6642 1920 d041
00000070: 2895 3043 75d7 c142 a643 1cc2 32c7 4143
00000080: 8702 2641 e0f0 9542 3c0b ec42 b05a 73c0
00000090: 7b46 1243 e97f 63c0 58a5 1fc2 e51d 8a42
000000a0: a1fd 18c2 e810 4142 dd4c 2cc3 49ea 9342
000000b0: e9d8 17c2 22d7 6942 7f9c 46c2 d912 64c2
000000c0: 4e9e 2143 1a0c 5242 9e52 4040 036b 65c2
000000d0: a819 68c2 a6d4 9643 799a 48c3 c778 0dc3
000000e0: 1137 86c2 3197 e042 700d 18c3 a4c9 edc2
000000f0: e430 bac2 657f 15c3 87c5 95c2 9137 0342
00000100: ceb2 b242 a976 3c42 5e83 9f41 5ba2 be42
00000110: d64e 91c1 1cfd 2ec3 11e7 b442 f8b2 b1c1
00000120: baa7 adc2 cd84 8dc2 1517 8fc2 1f5f c642
00000130: cc3b b542 4d2a acc2 956d c3c1 fbeb 1dc1
00000140: c629 1b43 bf6c cf42 74ae 37c3 3de9 6ec1
00000150: 203d 35c2 57ab 2043 31cb 5dc2 df39 44c3
00000160: 3f90 233f 798c 00c3 732b e6c0 2447 ac42
00000170: 658c 49c2 a792 5ac2 954a d9c2 97d5 abc2
00000180: 81d2 4b41 9d86 44c1 3258 7ac2 37f1 cd41
00000190: 3765 24c3 9a6a b0c2 564f 38c2 1dc0 e8c1
000001a0: bfbe 53c2 3956 0d43 3a65 cbc2 0b46 1e42
000001b0: ba06 ba42 7542 1643 9a6b 6b42 ce91 39c3
000001c0: dbdd 0943 ab9b 8bc2 0e34 01c3 6ab8 0641
000001d0: 05e4 bc41 2be3 be41 13d4 a7c2 4d13 edc2
000001e0: e1a7 f4c2 b3be 80c2 71cd 1d43 e86e 1ec2
000001f0: 18f2 2e41 7415 39c2 eb84 e0c2 903b 87c3
11.639889 67.8056 -35.12695 -15.029961 47.963245 -6.3060813 -162.65848 -135.96823
-116.58546 40.59253 -200.06549 33.983727 130.0323 -24.948069 66.86656 24.736345
90.446144 -129.94846 25.693995 -11.524764 -46.80686 117.84164 -158.35379 -24.570835
-151.54503 -54.66116 57.625324 26.015673 176.58264 96.920815 -39.066063 193.7781
10.375617 74.97046 118.02194 -3.8024101 146.27531 -3.554682 -39.91147 69.05839
-38.247684 48.26651 -172.30025 73.95759 -37.961826 58.46009 -49.65283 -57.018406
161.61838 52.511818 3.0050426 -57.354504 -58.025055 301.66132 -200.60341 -141.47179
-67.10755 112.295296 -152.05249 -118.89383 -93.09549 -149.49763 -74.885796 32.804264
89.34923 47.11588 19.939144 95.3171 -18.163494 -174.98871 90.4513 -22.212387
-86.82759 -70.75938 -71.54508 99.18578 90.61679 -86.08262 -24.428507 -9.870112
155.16318 103.712395 -183.68146 -14.931943 -45.309692 160.6693 -55.44843 -196.22606
0.6389198 -128.54872 -7.192804 86.13895 -50.387104 -54.643215 -108.64567 -85.91717
12.738893 -12.282865 -62.58613 25.74278 -164.39537 -88.208206 -46.077477 -29.093805
-52.936275 141.3368 -101.69771 39.5684 93.01314 150.2596 58.85508 -185.56955
137.86662 -69.80404 -129.20334 8.420023 23.611338 23.860922 -83.91421 -118.5377
-122.32789 -64.37246 157.8025 -39.608307 10.934105 -46.27095 -112.259605 -270.46533

layers.0.weight f4 [100, 256]
00000000: 7196 2cbc 0a7f 81be b060 c5bd 428b bebc
00000010: c9ae dfbd 8f31 4fbb d132 30be 74ad 303f
00000020: d7e3 ffbe fec0 d03d 8973 32bf 62cd f93d
00000030: 93c5 8fbe 920e 23be 69e6 1abe 9399 ec3d
00000040: 4899 6abe 510a 8f3e 7a78 173e d34d cebc
00000050: 9461 b73d 3c6a d93e 71e1 a33b 9323 0ebe
00000060: 144d ba3e b077 363e 0b98 4bbe 726c b53d
00000070: d139 143e d82d 083d 8464 a2bd 9ee9 4e3e
00000080: 0c5e 5d3d 668f 98be 0813 fd3e 8da3 d3bc
00000090: 18b0 33bf bc07 a63c 0b25 abbd 82ff 8cbe
000000a0: 2c4a 1fbc c660 8ebb 871c 2abe 2673 96be
000000b0: 6f7a 44bd d90c 28be d60a e93d 7505 043e
000000c0: 9b31 3b3e 2924 0abe 8907 013c f2f8 f53d
000000d0: 3391 d83d 8c7a 74bf 9087 45bf f5ce 563f
000000e0: cb3b 763e a6e6 113f e234 d73e 7038 d8be
000000f0: afb3 293e 49b6 0a3f 3049 983e 0bdc 183e
00000100: d9f4 82be 3019 8ebc d4bb 9e3d 709e 83bd
00000110: 497a acbc b1ae 2dbe ec00 66be b6c5 98bd
00000120: 12d5 9b3e 05a3 823e 65d3 673e 4dc1 043e
00000130: 13d8 3ebe 1e61 973e d827 27be f97d 433d
00000140: 5d5a 2cbe a94d b63e 9f47 a83d 38bc 32bd
00000150: 6ded 3c3d 4b41 7e3d cdb4 153e b264 95be
00000160: 3266 b1bc 9775 ac3d f81d 05bd 4ff7 8dbe
00000170: 505d dc3d f162 1c3e 0f50 01bf e902 813e
00000180: ba38 a93c 584c 8abd 4072 5f3e f038 143e
00000190: 9c1a 5bbe cfe3 2d3e 4471 11bd 9b3a 0bbe
000001a0: ae76 363e 5c1d 49bf 6e48 1dbe ff55 5f3c
000001b0: 9234 9abd cd8a fcbe c7ce 37be 5b2b c83d
000001c0: ca44 45bf 5185 393e de5d 603e 5847 e23c
000001d0: 3d55 d73d e3e8 023e bc59 933e 5ab2 edbe
000001e0: a872 77be 985f 183e 719d fcbd 0fa3 6ebc
000001f0: bd02 18bd a8f3 783d dac0 07bf 4576 c1be
00000200: 610a f03d 51d0 cd3d 1ca3 20bc e6d6 6d3e
00000210: 667b babd 100a 7b3d 0d1d 373f 28f8 02be
00000220: 72c8 14be 9ad3 9fbd 71c1 d23f b8e1 07bd
00000230: 7dfe f8be cd02 e23d d92f ec3d bd09 203e
00000240: 8c62 d93e 7e72 fcbe 768f ab3d 1136 053e
00000250: 1f2c 83bd 5314 57be 5de1 673f b028 033e
00000260: 7fa0 543f 32ed 0abd 0448 313d ad47 763d
00000270: 6caf 133f 7aed 163f 3845 f0bd a1ad a43f
00000280: c704 b03d ab3d 143e 2b65 1abe 7bea aa3d
00000290: 789e 013f b350 8d3d df50 74bd 05c7 073e
000002a0: c5fd 6dbb 58d6 80bc 242c 203f dc25 403e
000002b0: 74db 37bd 7f3f 6b3d d10b 73bd 37b8 44bd
000002c0: 5170 5b3f a13c d1bd 049c 893d fb7b 473c
000002d0: f488 413d b352 a83f 243b d33f 3cf3 683e
000002e0: 6275 963d b82b 193e 5ec3 713f 5baa 68be
000002f0: f4ad 033f 99df 403f 82cb d03d 8b43 ea3c
00000300: c6a7 e13e 2ee1 36bd f922 633e e5be 083f
00000310: 55b9 173e 2212 283f 5e91 003f c3a2 153e
00000320: 7c75 be3e 8d52 b93d 4631 833d 4e0d 1b3f
00000330: a49e df3e 0304 c53e 59b4 1a3e 1a84 2d3e
00000340: 1a5d 713f 5960 033f 11aa 2d3f 800f 0e3e
00000350: c513 98bd 01c8 5f3f 3573 9bbd 9d1b be3f
00000360: 39d2 fc3d c1e7 14bf ab3f e33d 161e cb3e
00000370: 400f fbbd cb2d fbbc 0377 bd3e 79e8 993e
00000380: 7f81 083e e0c9 493e 62e7 6c3d 58b1 0f3e
00000390: 9f05 303f b959 bf3e d93f 51bd 6693 d53d
000003a0: 1318 29bd 6232 093e 62a5 1a3f c716 54bd
000003b0: 3cae 083f 86e8 4d3f 3439 76bd 6300 543f
000003c0: e959 8bbd b07e 193e 2d5b 01bf 4fd0 0f3e
000003d0: 7d09 f73d c301 b83d 573e 943e 11fc 55be
000003e0: c884 dabe 9b7c 003a 048a 773f 39f3 81bd
000003f0: 3781 343e 9d09 89bd ff11 3f3e d8cd dbbf
-0.010533915 -0.25292236 -0.09637582 -0.023259763 -0.109220095 -0.0031615233 -0.17206885 0.6901467
-0.49978516 0.1019306 -0.6970754 0.12197377 -0.28080425 -0.15923527 -0.15126957 0.115527295
-0.22910035 0.27937558 0.14792052 -0.025183594 0.089541584 0.42463863 0.00500124 -0.13880758
0.3638693 0.17819095 -0.19882219 0.08858575 0.1447518 0.033246845 -0.07929328 0.20206305
0.05404477 -0.29796904 0.49428582 -0.025834823 -0.7019057 0.02026736 -0.08356675 -0.27538687
-0.009722274 -0.0043450324 -0.16612445 -0.29384726 -0.047968324 -0.16411151 0.1137902 0.12892707
0.18280642 -0.13490357 0.007875332 0.12010373 0.105745696 -0.9549949 -0.77159977 0.8390954
0.24046247 0.56992567 0.42032534 -0.42230558 0.1657245 0.54184395 0.29743338 0.1492769
-0.2557743 -0.017345995 0.07750669 -0.06426704 -0.021054404 -0.1696117 -0.22461289 -0.07459585
0.30435997 0.25515 0.22639234 0.12964363 -0.18637113 0.29566282 -0.16323793 0.04772756
-0.16831346 0.35606125 0.08216786 -0.04363653 0.046124864 0.062073987 0.14619751 -0.29178387
-0.021655176 0.08420866 -0.032499284 -0.27727744 0.107599854 0.15272118 -0.50512785 0.25197533
0.020656932 -0.06752843 0.21820927 0.14474845 -0.2139687 0.16981433 -0.03550841 -0.13596575
0.1781871 -0.78560424 -0.15359661 0.013631343 -0.07529558 -0.49324647 -0.17949973 0.097738944
-0.7705809 0.18117262 0.21910807 0.02762191 0.10514305 0.12784152 0.287794 -0.46425134
-0.24164832 0.14880216 -0.12334717 -0.014565243 -0.037111986 0.060779244 -0.53028643 -0.37785545
0.117207296 0.10049499 -0.009804513 0.23226508 -0.09105568 0.061288893 0.715287 -0.12789977
-0.14529589 -0.07804032 1.6465284 -0.033174247 -0.4863166 0.110356905 0.11532564 0.15628715
0.42457998 -0.493061 0.083769724 0.13008906 -0.064049 -0.21003847 0.9057825 0.1280849
0.830574 -0.033917613 0.04328157 0.06012695 0.5768955 0.5895611 -0.117319524 1.2865487
0.08594661 0.1447665 -0.15077655 0.08345505 0.5063243 0.06900158 -0.059647437 0.13259514
-0.0036314589 -0.015727207 0.62567353 0.18764442 -0.04488702 0.0574336 -0.05933744 -0.048027243
0.85718256 -0.10216642 0.06719211 0.012175555 0.04724975 1.3150238 1.6502423 0.22749037
0.07346608 0.14958084 0.9443873 -0.22721235 0.51437306 0.7534118 0.10195066 0.02859666
0.44073313 -0.04464834 0.2218131 0.5341628 0.14816792 0.6565267 0.5022181 0.1461287
0.37199008 0.090489484 0.064058825 0.60567176 0.4367572 0.38479623 0.1510786 0.16944924
0.94282687 0.5131889 0.67837626 0.138731 -0.07425646 0.87414557 -0.07590333 1.4852177
0.12344784 -0.5816613 0.11096128 0.3967139 -0.12258768 -0.030661484 0.3700486 0.30060175
0.13330649 0.19705915 0.05783785 0.14032495 0.6875858 0.3737314 -0.05108628 0.10428505
-0.041282725 0.13398126 0.60408604 -0.051779535 0.5339086 0.8043293 -0.060113147 0.8281309
-0.068042584 0.14989734 -0.5052975 0.14044307 0.120623566 0.08984711 0.28953812 -0.20896937
-0.4267943 0.000490138 0.9669497 -0.06345219 0.17627417 -0.06691287 0.18659209 -1.7172194

layers.0.bias f4 [100]
00000000: 5c18 033e 3d97 c2bc 25ab 063e e488 613d
00000010: adf7 81bc 8ca0 143e 71f3 103d ea64 1abe
00000020: 6b91 b43d 503f 263d 665a 8c3d 47ef a43d
00000030: 8f14 3ebd 136f a13d d6b0 afbc aaca ce3d
00000040: cff1 be3c 7c69 ffbc 0019 5d3d f769 dd3d
00000050: 0bcb 1f3d 9f42 67bb 0787 2fbd 9bf0 21be
00000060: 971d 863c 4829 2abd 2bf2 12be 683a 96bd
00000070: d0e9 553c 554f 433d b9a2 a83c 0d35 313d
00000080: dc30 623c 38cf d4bc 7e72 9d3d cfc6 373d
00000090: c059 07be c435 413e a76b 473e 904e b03d
000000a0: 3084 433b e0fa f4bc cd27 d73d bc7d a3bc
000000b0: e90f dd3c c154 0e3d 04ae b3be 9487 b23d
000000c0: 6909 04bd 9a9b 763e 7f07 babc 37ab f9bd
000000d0: 0e68 473d a761 af3d a711 9fbd 3559 a0bd
000000e0: 5091 b53c 144b 01bd 7822 8a3d e424 c33c
000000f0: e2d0 83bc 99f7 babc 463a 723d e568 89be
00000100: a1f0 e0bd 9f46 e7bd ae8d aebc e92b 20be
00000110: fd6c b0bd 725d c6bd 9a20 a3bd b9ce 2fbd
00000120: 6c7b dd3d 454e 403d 937c 61bc d27f 573d
00000130: 30fe b03c c7cc 5a3d e33c 58be 1690 083e
00000140: ae40 66bd 5133 453e 22b1 31be e4aa 2f3c
00000150: 16c4 d1bd 786a 603e 9f7f 0dbd 02d0 ffbd
00000160: ac57 21be 7047 b2bd 593d 2b3d a3d5 55ba
00000170: e74e 363d 42d4 fc3b 6bc1 85be c6a2 cb3c
00000180: fbd8 2f3d c501 cd3c 251f 903d 4ce4 b6bc
0.12802261 -0.023753757 0.13151224 0.05506219 -0.015865171 0.14514369 0.035388414 -0.15077558
0.08816799 0.040587723 0.0685318 0.08053451 -0.046406325 0.07882514 -0.021446627 0.10097249
0.023308663 -0.031178229 0.05397892 0.10811227 0.039011996 -0.0035287512 -0.04285338 -0.1581444
0.016371531 -0.041543275 -0.14350192 -0.07335359 0.0130562335 0.04768308 0.020585405 0.043263484
0.013805594 -0.025977716 0.07687853 0.044867333 -0.1321783 0.18868166 0.1947466 0.086087346
0.0029833429 -0.029904783 0.10505638 -0.019957416 0.026985126 0.034748796 -0.350937 0.08717266
-0.032235537 0.24082795 -0.022708653 -0.1219086 0.04868322 0.085635476 -0.07767039 -0.07829515
0.022164017 -0.03156574 0.06744856 0.023821302 -0.016090814 -0.022823142 0.059137605 -0.2683784
-0.10983396 -0.11292767 -0.021307793 -0.1564175 -0.08614538 -0.09685792 -0.07965203 -0.042921755
0.108145565 0.046949644 -0.013762611 0.052612133 0.021605581 0.053417947 -0.21116976 0.13336214
-0.056214027 0.19257857 -0.17352727 0.010721896 -0.102424785 0.21915615 -0.034545537 -0.12490846
-0.157561 -0.08705032 0.041806553 -0.00081571395 0.04450884 0.007715733 -0.2612413 0.02485789
0.042931538 0.025025258 0.0703719 -0.022325657

layers.2.weight f4 [100, 100]
00000000: c23f 163e f53f 3f3e 16cc 22be 8988 f3bc
00000010: cb30 61be 043b 93bd c2cc 2dbf c59b 173c
00000020: 7040 153c 6a5e 243e 6595 55bd f2a6 d73c
00000030: d9d8 213e fd9f a5bb 1c97 673d e794 94be
00000040: 656f 7e3d 8487 b9bc 5b4c a53e 4297 883e
00000050: 80fe 15be 6613 1bbe 6d8e 383c 3275 0d3e
00000060: decf e0bb 0c2d 0f3e f26e b0be 50fb 84bd
00000070: 5d8d 103c 0af3 223c 7f29 6a3e 5d58 453e
00000080: 4691 d1be 17da 6fbe 3bd2 f2bd b6ba 99be
00000090: ad73 88be 642a d03c 4b24 17be d4ff 89be
000000a0: 51fc 15bc a848 b03e 06a6 243d 592c 153e
000000b0: 0247 c93d 85ef 07be 288a 85be 3fbd 48be
000000c0: bb18 853e d19c 8d3e 3855 61be 95ab 89bd
000000d0: 5009 4cbd 56dc ee3e a4ac 0fbf 8bb2 20be
000000e0: 71dd c3be 379c fdbd c4f8 b4bd 0c06 4dbd
000000f0: dab5 bd3e 11ca ffbd 8b6c 413e 243d 173d
00000100: fcd6 8dbe 8940 813c a0da cb3d 7a92 0d3e
00000110: 8493 ae3d 1804 7c3c e822 53be 99d5 79bc
00000120: c4a8 dabd f057 7f3e ba2f 6dbe 2ebf c13e
00000130: 3047 0c3e 8100 24bd 560d 13be 0602 173e
00000140: bf07 b2bc d420 9bbc 4dcb acb9 103c a13a
00000150: 1b52 d43e 57d8 d3bc 91ef ea3d d336 573e
00000160: b33e fcbd 218c 963e 042c 483e 142b bbbd
00000170: 08ed 49be 5cc7 1cbd c618 cebe 73d9 cb3d
00000180: d46f eabc fd72 60bd 2087 3bbe 6476 b7be
00000190: 2a6b 5abe 4def 9abd abc6 a63d 8c1c 9cbd
000001a0: 8117 00be 558e 1a3e af95 f1bc 2a72 343e
000001b0: f995 c63c 9c27 0e3e 276f d3bd b92f bcbd
000001c0: 862b b0bb e9e1 173e c7e2 b83d 25a0 853d
000001d0: 7a59 1dbc e638 063d 0247 19be 5c77 97bd
000001e0: 9a05 6cbd 17be ba3d 8552 553c 40b6 80bd
000001f0: 82d7 fbbd f404 6ebd b0b1 453e b6ab 03be
00000200: 4800 b9bd b1bb 63bd 5914 70be 6ccb 8bbe
00000210: 86b1 8dbd 6cc4 29be b531 a03e 6dda 4dbe
00000220: 1232 883d b365 d13d e7bb 30be 3043 343e
00000230: 4c70 29be 495e 82bc 4597 8bbd 4ffc 143e
00000240: 5b4a a3bd 97f2 be3d fd1b 23be 974b 363d
00000250: 9767 2d3d 9c08 d5bd 3642 933d c51f 033e
00000260: 7945 04be 8e43 83bd 50ff 9b3d 2f46 44be
00000270: a3e4 153d 7119 a1bc 4266 0dbd 9dbf 43be
00000280: 5034 993d 1d17 e7bd ff35 25be 0fcf 6b3e
00000290: f6fc 53be 751d f4bd 1fb2 63be 3cb5 f2bd
000002a0: 937b 2a3d 68e3 f3ba 82d7 e23d 84ef 40be
000002b0: eaa8 31bc b221 a8be b076 453e d030 44bd
000002c0: 57ab db3d 6a2b 863e 2093 f6bc dd0e eb3d
000002d0: b6e8 83bc f9e4 26be 4af1 17be b29b a3bd
000002e0: bca0 76be 1384 05be 012c ca3d 96a9 923d
000002f0: 35da 7f3d e4c8 70bd 1be6 d23d 21ff a13d
00000300: 0fc7 6a3e 4118 10be 33b5 9bbd 2ac7 13be
00000310: 2d5d fa3d 9083 b13a 7fe7 203d 039c 12be
00000320: e9c1 b13d 9dab 33be 1afd 5abd bb59 893d
00000330: b7f5 02be 243a ec3e be4d ed3d 0a3b 10bd
00000340: b2e4 d63d 16e4 8f3d 4b03 2f3e e3f2 f1be
00000350: a478 a7bc e544 843e 42fa 36bd 0f68 603e
00000360: 4856 c0be f0da af3e 57f2 dd3d 2da5 fabe
00000370: 45b1 d03e d830 993e 64ac e0bd 37d1 e23e
00000380: ce55 38be ed0c 853e 956c ecbe 3d78 983e
00000390: c0fc ba3e e36c aa3e 5e85 743e c1c0 9dbd
000003a0: 180a 8cbd d41b 3ebe 87c8 dc3e 5bbb c2be
000003b0: 7cf3 943e fd61 743e 4342 22bc 17c4 b8be
000003c0: fbab 5bbe a1e6 3a3e 4a72 8a3e fe4e a83d
000003d0: cc86 993e 82bb 883e 73d9 253d 02b1 a53e
000003e0: 3ebc df3e be08 0a3e a84e 5e3c 101e 283e
000003f0: f2cd 403e a063 13be a517 d63e eb66 013f
0.14672759 0.18676741 -0.15898165 -0.029728191 -0.2199127 -0.07188991 -0.6789056 0.009253447
0.009109601 0.16051641 -0.052144427 0.026324723 0.15805377 -0.0050544725 0.056540594 -0.29019853
0.062117953 -0.022647627 0.32284817 0.266779 -0.14647865 -0.15144119 0.011264426 0.13814238
-0.006860717 0.13982028 -0.34459645 -0.064932466 0.008822766 0.00994564 0.22867392 0.19271989
-0.40931147 -0.23423038 -0.118565045 -0.30025262 -0.26650754 0.025410838 -0.14759938 -0.26952994
-0.009154395 0.34430432 0.040197395 0.14567699 0.09827997 -0.13274963 -0.26081967 -0.19603442
0.2599543 0.27658704 -0.22005165 -0.0672218 -0.04981357 0.46652478 -0.56122804 -0.15693109
-0.38254884 -0.12383311 -0.08836511 -0.050054595 0.37052804 -0.12489713 0.18889062 0.036923543
-0.27703083 0.015777843 0.09953809 0.13825408 0.0852423 0.015381835 -0.20618784 -0.01524868
-0.10676721 0.24935889 -0.23162737 0.3784117 0.13699031 -0.040039543 -0.14360556 0.14746866
-0.02173221 -0.018936552 -0.00032957867 0.0012301225 0.41468892 -0.025859995 0.11471475 0.21017008
-0.123166464 0.29403785 0.1954804 -0.09139076 -0.19719326 -0.03827606 -0.40253276 0.099535845
-0.028617777 -0.05479716 -0.18313265 -0.35832512 -0.21329942 -0.07565174 0.08143362 -0.076226324
-0.12508966 0.15093358 -0.02949032 0.17621675 0.024241434 0.13882297 -0.10323935 -0.0918879
-0.005376282 0.14832272 0.09027629 0.06524686 -0.009603852 0.032769106 -0.14968494 -0.07395813
-0.05762253 0.09118288 0.0130201625 -0.062847614 -0.12296964 -0.058110192 0.19306064 -0.12858471
-0.09033257 -0.05559892 -0.23445262 -0.27303636 -0.069186255 -0.16578835 0.31287923 -0.20102854
0.06650175 0.10224476 -0.17259179 0.17603755 -0.16546744 -0.0159141 -0.06815962 0.14549373
-0.079731666 0.09323614 -0.15928645 0.04450568 0.04233512 -0.10402033 0.07190363 0.12805088
-0.12917127 -0.064093694 0.07617056 -0.19167398 0.036594998 -0.019665452 -0.03452135 -0.19116063
0.07480681 -0.112837054 -0.16133879 0.23028205 -0.20701966 -0.11919681 -0.22235917 -0.11850974
0.041621756 -0.0018607201 0.11076261 -0.18841368 -0.010843495 -0.32838207 0.19283557 -0.047898114
0.1072604 0.26204997 -0.030099452 0.11477444 -0.016102176 -0.16298284 -0.14838138 -0.07988681
-0.24084753 -0.13038664 0.09871674 0.07161252 0.062463958 -0.058785334 0.102977954 0.0790999
0.22927497 -0.14071752 -0.076029204 -0.14431444 0.12224803 0.0013543237 0.039283272 -0.14317326
0.086795636 -0.17545934 -0.053464033 0.06706568 -0.12789045 0.46138108 0.11587094 -0.035212554
0.10492839 0.07025926 0.170911 -0.4725562 -0.020443268 0.25833812 -0.04467226 0.21914695
-0.37565827 0.34346724 0.10837238 -0.48954144 0.40760246 0.29920077 -0.10970381 0.44300243
-0.18001482 0.25986424 -0.46176592 0.29779235 0.36520958 0.332862 0.23879 -0.077027805
-0.06837863 -0.18565303 0.4312174 -0.38033566 0.29092014 0.23865505 -0.009903493 -0.36087105
-0.21452324 0.1825204 0.2704032 0.082181916 0.29985654 0.26705557 0.04049058 0.3236161
0.43698305 0.13479897 0.013568558 0.16417718 0.18828562 -0.14393473 0.41814914 0.50547665

layers.2.bias f4 [100]
00000000: c373 46bb e86b 70bc a14b 26be 0751 053d
00000010: 1db5 303d 0727 a5bd f30d a4bd 1a57 d3bd
00000020: 185c 99bc 2377 14bd bfbf 4c3e e2d4 7e3b
00000030: 06c1 863a 681b f2bd 88e9 18be b020 b13d
00000040: 15da a2bc adad 2cbe e288 41be 005a fb3d
00000050: d79e f4bc bdf4 05bb 24f1 a63d a865 b5bd
00000060: 58fa 1ebe 91fb bc3c 88ce c9bd 501d c1bd
00000070: b53d 50be b82d 363e 0f1e 043c bce2 a4bd
00000080: a0b6 4d3c 7a28 833d 65a8 04be 6f2d 2cbe
00000090: 5eb1 5b3e 180f 2cbc 98c0 8b3c 6346 06be
000000a0: 27b7 3e3d 01c1 413d 5842 cb3d 805d 3dbd
000000b0: 071c e33d 2c31 febd c913 21be add0 d53d
000000c0: 2fe4 0e3e 24c3 04be f125 c2ba 9f4e 8ebd
000000d0: f01a debb 247b 13be f9c3 633d 2652 11be
000000e0: fa30 f8bc d588 00be 3559 8b3d 6932 40bd
000000f0: 3022 50be 1378 003e 430c bc3d c961 6f3d
00000100: b2ff 0abd d660 c33b d37e 363e 5cb0 33be
00000110: 154f 713d b2db 1cbe 9610 5fbe 81fd a43d
00000120: 4b02 01be 3707 c0bb cb7f aebd 08b1 10bd
00000130: dd2c ecbd a9b8 233a ebe7 843d 4f9c 55bc
00000140: 0c07 993d 8f59 4abe 5045 05be 8ff4 04bc
00000150: a98d f9bd 2178 c43d b97a 22be d37c 29be
00000160: 09e8 fdbc fda9 26bd 936e 0abe 3cef 7dbd
00000170: 32b6 41bd 1392 e6bd 6eb6 37bd c0f9 e53c
00000180: 4a95 a83d 2f78 aebd ced0 b53d 448b ed3c
-0.0030281402 -0.014674164 -0.16239788 0.032547977 0.043141473 -0.080640845 -0.08010473 -0.10319348
-0.018720672 -0.03624643 0.1999502 0.0038884212 0.0010280914 -0.118216336 -0.14932835 0.08648813
-0.01987938 -0.16863127 -0.18899873 0.122730255 -0.029860897 -0.0020440065 0.08151463 -0.0885728
-0.15525186 0.023069175 -0.09853846 -0.09429419 -0.2033604 0.17790878 0.008063807 -0.08051059
0.012555748 0.06404205 -0.12954862 -0.16814207 0.21454379 -0.0105016455 0.01705961 -0.13112788
0.046561386 0.047303203 0.099247634 -0.046231747 0.1108933 -0.124117225 -0.15730204 0.10440192
0.13954233 -0.12965065 -0.0014812333 -0.069485895 -0.0067781135 -0.14402443 0.055606816 -0.14191493
-0.030296791 -0.12552197 0.06804124 -0.046923075 -0.20325541 0.12545805 0.09182026 0.058442865
-0.033935256 0.0059624715 0.17821817 -0.17547745 0.05891331 -0.15318182 -0.21783671 0.080561645
-0.12598531 -0.005860235 -0.08520468 -0.03532508 -0.115319945 0.0006245473 0.06489547 -0.013037755
0.07472047 -0.19760726 -0.13014722 -0.008114948 -0.12185223 0.09593225 -0.15867127 -0.16551523
-0.030994432 -0.040689457 -0.13518743 -0.06199573 -0.047292896 -0.1125833 -0.044851713 0.028073192
0.082316 -0.08519017 0.08877717 0.028997071

layers.4.weight f4 [100, 100]
00000000: 7090 4eb8 59aa de3d 6af6 c9bd e7f2 0a3e
00000010: 8c40 8abb 82d5 0cbe 5725 ecbd dde3 c23d
00000020: 188e 783d 1e28 f13c 3003 003d e35c 153e
00000030: d7c6 a53d 4050 df3b eea0 5e3d 6fe1 703d
00000040: ef7c 5f3d afda 8b3d 2e29 2d3e 6618 cc3c
00000050: 9183 11be 51a8 0f3e abc5 643d 10b7 f6bd
00000060: bbd2 5cbd c8f5 b1bd 0c4b 913b 1d2e 223e
00000070: cc09 32bc ffdc 66bd f36c 57bd 62c1 0abe
00000080: 3568 37be 24fa afbd 35a4 27be 0b9c 05bd
00000090: 5f77 82bd 3cff 493d 48bc 4fbd 3127 073e
000000a0: 17bb fbbd 7714 d4bc afb0 543c 549f 7ebc
000000b0: 8542 b9bd 05c7 1a3e 3a47 2a3e 4f49 b13d
000000c0: fbb3 37bd 2e19 733d 93e2 14be ab20 c2bd
000000d0: 68ab 7d3d 6196 be3d 4ca0 98bd f070 0ebe
000000e0: 1532 423c f9c1 133d b033 e23d e29e 2fbe
000000f0: 651a d0bd d512 153d d025 a13d a6e9 12be
00000100: 5416 a4bd e63f f33d 267a 983d aa23 163e
00000110: 0cfd 10bd d1ac f53d 01e5 703d 58f1 473e
00000120: d763 ce3d eaf6 aa3d f1a7 3cbd 3ced 9fbd
00000130: fda6 6e3d da6f be3c 1965 ee3d 1a96 ab3c
00000140: d825 8c3e a2d3 573d 72dc b8bc aeb4 5dbd
00000150: 784d e9ba 59bc 43bd d992 b23d 24ea 19be
00000160: de13 323e 63be 9dbd e64d 29bd 9846 203d
00000170: 5f6b 9dbb bc82 b7bd 7ec1 4e3c 42d6 9f3d
00000180: e8f9 903d b415 903b db4b 983d 3b12 fc3c
00000190: 18ea 22be d9ec efbd e105 923d e730 103d
000001a0: 97b5 7cbc 2e25 da3d 19bf 853d 06aa aa3d
000001b0: 5aa2 bdbc 04d5 eb3d 73a6 f0bd d5e3 ac3c
000001c0: 93e7 1b3e feb1 273c d597 c5bd 7636 273c
000001d0: e0f8 04be fb67 023d c47c 0cbd a050 7f3c
000001e0: 6fbe 37be 3d80 953c c7b1 d1bd c22a 2ebd
000001f0: f161 e0bd 6c08 a23a 98a2 9d3d 370c 09bd
00000200: 1074 aa3c 7136 bb3d 972b 34be 609b 84be
00000210: ba62 c8bc 0b25 753d 7313 393e 4566 953c
00000220: 2340 7f3e 2f0a 613d 25a2 2b3d 3e72 c93b
00000230: 9856 f5bd ee26 6dbc b1b4 fabd 2d72 13bc
00000240: 4686 73bd 49a3 ae3d e146 903c 3ed6 a03d
00000250: 4c2a e1bd a2e8 0bbd 95ca a43d 1873 91bc
00000260: f4dc 57bc e723 1a3e 0932 143e 1702 583e
00000270: d875 5d3b a1c6 053d 850b 5b3d e79e 08bb
00000280: 319a d43d f4ac 3b3d 2841 ffbd 4988 6c3d
00000290: 6dec 7d3d 5ec8 0d3e a7be d53d cbfb afbd
000002a0: c3b5 143d b37e 1fbd 6bf5 abbd 7a05 f83c
000002b0: 3a5d 94bd b692 e0bd 5115 9abd d288 89bd
000002c0: 91e7 b33c 5469 66bc 0198 9f3d f46a 873c
000002d0: f2dc 5a3c ffc0 a7bb 32f2 04bc 4e31 99bc
000002e0: 6367 adbd 0271 c93d d02f 0abc 3baa 113e
000002f0: 94c1 d4bc f8fc 06bd 381d ffbc bfed 5cbc
00000300: a24e d73d 4e7c acbd 0522 babd 0dd7 f1bc
00000310: 006f 483c aedc 7a3d f6f0 893c b144 04be
00000320: a62f 153e 08a9 82bd 1674 e1bd 097e 9a3d
00000330: 4d8e 7a3e 9d95 8bbc 9dee 313e 806d b73d
00000340: 879b 8cbb 0375 243e 2c02 37be d5a5 963e
00000350: d52c c9bd cf73 57be f4ee 88bd 7d14 58be
00000360: 2909 5f3c 86fe 733d 070f 45bc 7cc2 a0bd
00000370: 2508 23be d92e 63bd 6b9a e9bd 1d93 da3d
00000380: 0b83 b4bb ae8a 2bbd e802 a23d ba32 b03c
00000390: 46d8 e1bc ca3d 6bbe 653f 4b3d 2bf2 09bd
000003a0: 1c83 113d 2da1 ee3d a582 8c3d dd6d 693b
000003b0: f35f 533d dd96 e8bd 8c82 93bd 16c8 fc3d
000003c0: 6cb9 02be 2521 553d 5679 513a 86a1 cd3d
000003d0: b647 d23d 5f77 253e 987f 59bd 2477 a2bd
000003e0: 22a2 063e 47ea 8fbc 19f3 fdbc e71f 68be
000003f0: 7173 c73d 27a4 eabd 3d8d 28be a95f 0bbd
-4.9248745e-05 0.10872335 -0.09861453 0.13569222 -0.0042191204 -0.13753322 -0.115305595 0.09516118
0.060682386 0.029438075 0.03125304 0.14586215 0.08094566 0.0068149865 0.054352693 0.05880874
0.054562505 0.0682882 0.1691024 0.024913978 -0.14210345 0.14029051 0.055852573 -0.12046635
-0.053911906 -0.08689457 0.004433995 0.15837903 -0.010866594 -0.056363102 -0.052594136 -0.13550332
-0.17910846 -0.085926324 -0.16371234 -0.032619517 -0.063704245 0.049315676 -0.05071667 0.13198544
-0.12291544 -0.025888665 0.012981578 -0.0155409165 -0.09045891 0.15114982 0.16628733 0.08656561
-0.044849377 0.059350185 -0.14539556 -0.09478887 0.061931044 0.09306026 -0.07452449 -0.1391027
0.011852761 0.03607366 0.11045015 -0.17150453 -0.10161284 0.036394913 0.0786854 -0.14346942
-0.08012071 0.11877422 0.07445173 0.14662042 -0.035397574 0.11995853 0.058812145 0.19525659
0.10077637 0.08347876 -0.0460586 -0.07808921 0.05826472 0.023246694 0.116403766 0.020945597
0.27372622 0.052692063 -0.022566054 -0.054127388 -0.0017799577 -0.047787044 0.08719415 -0.15030724
0.17390391 -0.07702329 -0.041334055 0.039129823 -0.0048040594 -0.089604825 0.012619374 0.07804538
0.07078916 0.0043971185 0.07436343 0.030770412 -0.15909612 -0.11715097 0.071300276 0.035202887
-0.015424154 0.10651623 0.065305896 0.08333211 -0.023148704 0.11515239 -0.11750498 0.021104733
0.15225057 0.010235308 -0.096481 0.010205856 -0.12985563 0.031837445 -0.034298673 0.015583187
-0.17943738 0.018249625 -0.102389865 -0.042521246 -0.10956181 0.0012362129 0.07697028 -0.033458915
0.020807296 0.09141243 -0.17594753 -0.25899792 -0.024461139 0.05984978 0.18073826 0.018237242
0.2492681 0.054941352 0.04190268 0.006147652 -0.11979407 -0.014474614 -0.122414954 -0.00899939
-0.059454225 0.08527238 0.017611923 0.078533635 -0.109943956 -0.034157403 0.08046452 -0.017755076
-0.013175238 0.15052758 0.14472212 0.21094547 0.0033792164 0.03266013 0.053477783 -0.0020846666
0.10380972 0.045819238 -0.124635994 0.05774716 0.06199305 0.13845965 0.10436755 -0.085929476
0.036306154 -0.03893919 -0.08396419 0.030276049 -0.07244344 -0.10965483 -0.07523597 -0.067155495
0.021961005 -0.014063198 0.07792664 0.016530491 0.0133583415 -0.0051194425 -0.0081143845 -0.018700268
-0.08466985 0.09836008 -0.008434251 0.14225094 -0.025971211 -0.032956094 -0.031141862 -0.013484417
0.10513045 -0.08422147 -0.0908852 -0.02952149 0.012233496 0.061245613 0.016838532 -0.12916829
0.14568958 -0.063798964 -0.1100847 0.075435705 0.24468346 -0.017039115 0.1737618 0.08956432
-0.0042910012 0.16060261 -0.17871922 0.29423395 -0.09823004 -0.21040271 -0.06686202 -0.21101566
0.013613024 0.059568904 -0.012027509 -0.07849595 -0.15921076 -0.0554646 -0.11406406 0.10672591
-0.0055087856 -0.041880302 0.079107106 0.021508563 -0.027568948 -0.2297279 0.049621005 -0.033678215
0.035525426 0.116518356 0.06860856 0.0035618462 0.051605176 -0.113569 -0.07202634 0.12342851
-0.12766045 0.052033562 0.0007990798 0.10040574 0.10267584 0.16158818 -0.0531002 -0.079328805
0.13147786 -0.017567767 -0.030999707 -0.2266842 0.097388156 -0.11457091 -0.16460128 -0.034026776

layers.4.bias f4 [100]
00000000: 75a5 08bd 5009 343d 2c73 8abc 2a7b e3bd
00000010: 95dc 313c df94 d53d 4241 b73a 8ecb d5bc
00000020: 81fc 08be 3a3f 043c e3ea dfbd db78 f3bc
00000030: 87d7 16bd 208e 49bd 84aa 403d ff0c a7bd
00000040: 626a 473c 0437 26bc e8da 04bd 9d4f f13d
00000050: a82f 4b3d 2437 14b9 a315 8e3e bfa7 dfbd
00000060: 5a02 103c b1e2 47bd 3356 ce3d 31c7 e93d
00000070: 1d65 3539 e14a 21be bc12 393e 02bd 18bd
00000080: fd91 4c3c ab66 383d 22be 9cbd ed2d a1bd
00000090: d229 c23c 3669 87bd b03f 933d 7b7a 02be
000000a0: f250 8ebd 461f e4bd 7a57 85bd ce5d 17be
000000b0: 0e78 513c cb7d 70bd ec74 86bc 62a2 3c3c
000000c0: d891 bbbd dd23 fdbd 211f 18bc 82b8 07be
000000d0: 5eee 5bbe b71f 10bd f7bb 9a3d 22e0 02bc
000000e0: a532 1cbc 7418 e1bb cfe1 943d 0be3 513b
000000f0: 5d8e 693c 0faf 2bbe f654 00be e262 1e3d
00000100: cafd 6abd db78 44bd f653 f23d b630 a1bb
00000110: 236c 343d 21bf 9b3d 595a b7bd 6086 32bd
00000120: 739b bdba 8cc3 aabb 5435 bf3c 83b6 37bd
00000130: 7643 f8bd 3085 c2bd e749 f83c b16a 64bc
00000140: 1939 333d b8e2 85bc cf92 e3bc 90ed 36bd
00000150: 1a42 d23d bca6 093c 3e6c 13bd f241 463e
00000160: 8f0b 06bd aac9 78bd bf99 7fbd 338d ebb9
00000170: bbee 77bd 4959 923d b25a 0fbd be88 47bd
00000180: b47b 90bc b2f1 a7bd 7c64 41bc 3100 6fbd
-0.033360917 0.043954194 -0.016900621 -0.11107476 0.0108558135 0.104287855 0.001398124 -0.026098039
-0.13377573 0.008071715 -0.10933473 -0.029720714 -0.036826637 -0.049207807 0.047037616 -0.08156776
0.01217136 -0.010144953 -0.032435328 0.11782763 0.049605995 -0.00014134921 0.27750883 -0.10920667
0.008789623 -0.048800174 0.10075035 0.11414946 0.00017299173 -0.1575122 0.18073553 -0.037289627
0.012485978 0.045019787 -0.076534525 -0.07870088 0.023701582 -0.06611864 0.07189882 -0.12742035
-0.06949033 -0.111387774 -0.065108255 -0.14781877 0.012784971 -0.058713716 -0.016413175 0.011513324
-0.09158677 -0.12360356 -0.009284765 -0.13253978 -0.21477649 -0.035186496 0.07555383 -0.007988008
-0.009533559 -0.00686937 0.07269632 0.0032026197 0.014255133 -0.16765998 -0.1253241 0.03866852
-0.05737094 -0.04796682 0.118324205 -0.004919137 0.04404844 0.07604814 -0.08952779 -0.04358518
-0.0014465883 -0.0052112993 0.023340859 -0.04485179 -0.12122242 -0.0949806 0.030308677 -0.013941453
0.043755624 -0.01634346 -0.027779965 -0.04466015 0.10266514 0.008401569 -0.0359919 0.19361094
-0.032725867 -0.060739197 -0.062402483 -0.00044927894 -0.060530405 0.07145936 -0.034998603 -0.048714392
-0.017637111 -0.082003966 -0.0118037425 -0.058349792

layers.6.weight f4 [100, 100]
00000000: 2f46 cf3d 1d7b 18bd c5ad d33d 07d4 e93a
00000010: b02a 5b3d c273 a4bd 5aaf 10be b1d6 373d
00000020: 514e d0bd b5b2 bfbb 43f8 5b3d 2bb0 ac3b
00000030: 5efe 08be f8ea 953c 5705 90bd 2511 70be
00000040: 68ca b43d e36d d2bd 9470 a13d 0930 e93d
00000050: e327 0e3d ea61 cebc d102 e2bc 72d8 083c
00000060: 3653 963d 6e10 15bc 7568 52bd bdb9 173d
00000070: 4b1e a7bd 10c2 48bd 51f3 bdbd b574 a7bb
00000080: d238 213d c1d6 efbd 971e 893d d1f3 a73c
00000090: ddd0 0ebd 24f0 9d3d aab5 3e3e 2a80 ce3d
000000a0: 45d4 dcbd 2064 1cbd 6b98 23be c116 16be
000000b0: de7a 3c3c dd8e ea3d 6351 4abd 66a0 bdbc
000000c0: 10bd 40bd abb6 11be 1f8d 42bd aba5 5cbd
000000d0: 81ad 94bd 9b7b 853d 6f09 d73d 9b1e febd
000000e0: e2d4 97bc a7c9 713c e695 dcbd 909f 933d
000000f0: 5f5a cfbd 106c 083e 3ed8 31be d5b7 bcbd
00000100: 2f67 243d f8d1 f93d c16a 563d 0921 a23d
00000110: 65db 2a3d bb75 48bc 6dff 65bb 14ec 8d3c
00000120: 5be4 9abd c519 62bd f4cd 4cba 68a2 b83c
00000130: 19f3 ab3c 45ce 0e3d f2f5 44bd 5a84 adbd
00000140: 8c2d c43b d99f e839 509c 42bd d07f 1d3d
00000150: 18fa 02bd 5430 dabd 4b76 d73d 4619 5cbd
00000160: 6c1c 0f3e e8a8 75bd 308a 063e 504d 2dbd
00000170: 09d2 e6bd 2dad 8e3d 3d16 223d db70 f13d
00000180: ae28 c2bd 8a85 9cbc ae17 f1bd 7ab8 37be
00000190: 1195 cdbd 3131 273d fa78 623d f265 75bd
000001a0: 65ff d6ba 48c0 4dbd 5acf 32bd 904f 0cbd
000001b0: ebf3 b93d f893 8ebd 6f67 083c 6c69 8a3d
000001c0: 3787 f73c 75fc b4bc 06a2 423d 0a1d 3abd
000001d0: 819a 1c3d 7082 9b3a d52e d03d ea16 2f3d
000001e0: 98f7 d2bc 578e 12bc 4bf4 f53d 0d37 c8bc
000001f0: 9a60 c23c 6e15 9f3c 5afe 3bbc f0d4 0dbd
00000200: e327 d1bd 2084 9c3d 7163 1dbd b548 843c
00000210: f790 c4bc 79df 7f3d 608b 1c3c b01f 0dbd
00000220: 685a e93b e25c 7bbd ff32 243c 2de0 d63c
00000230: c9d9 cf3d 6d6c 8a3d b5ac b93c 3e89 78bd
00000240: 4a99 f73b 0784 b0bd e59e 79bc 8e3c e4bc
00000250: 76e1 4bbd c371 2e3d 165e 9ebd 5edd c1bd
00000260: 6187 173d fe4d b1bd affe 793d 1243 83bd
00000270: 1a9d d13c 4003 61bd 64aa 52bc eccd 133d
00000280: d250 54bb f572 22bd 60c3 0bbe 35a6 5ebc
00000290: 3361 fc3c 5153 a8bd d60c a2bc b48d 3fbc
000002a0: 9bbb 2bbd 2024 84bd 2d07 4f3d 109d debc
000002b0: 4785 dfbb baf0 ea3c 0a4c 7ebd 2cb5 dc3b
000002c0: 176f b23d baa1 96bc 8f3e 8d3c 0f6a dbbd
000002d0: 03c1 ceba f184 833c aacf adba 6309 993b
000002e0: 6d57 adbd 70d0 593c 4b9b 9b3d 6805 f7bd
000002f0: b697 403d 7e66 ecbc af2d 423c 00b0 843c
00000300: 834b 413d 1036 f6bc 1d67 80bd 0245 23bc
00000310: 1e1c d03d 514e ad3d 4afc 2c3d 8b04 5abd
00000320: 11d5 693b 8951 bf3d cc1f 86bd c023 523d
00000330: b7a5 cfbc 209f d73d 7101 a7bc 85d5 2fbe
00000340: 5c2b 75bd 11d4 37bc 8482 903c 041a 043e
00000350: a507 80bd 4b94 833d 0d8e 873c c330 db3b
00000360: 8826 5cbd dc2d 09bd b5ee d8bd 64a3 9dbc
00000370: 6b4b e7bd a0c7 663d 3788 df3d 78d9 50bd
00000380: 9527 2a3e c4d5 c13d 430c d5bd 99ca 8bbd
00000390: 6899 4bbc 1d7e 8b3d 4ad2 d83d 4af8 b0bd
000003a0: 773d b63d ec4a 64bd 66df 4cbd 8bb2 c5bd
000003b0: 7c1a cd3b 2d05 bfbd 8341 00be f8ef cb3d
000003c0: 4054 083e f630 f9bc 2be7 8cbc 99ab b63c
000003d0: 8dab d2bd 0b36 8cbd 465c 5539 f0a3 b13a
000003e0: 4231 b93d c27c a9bb e593 893d b570 d03d
000003f0: f86c 323d 67eb 983c 5e8e 52bd a5a1 223e
0.10120808 -0.037226785 0.10335878 0.0017839678 0.053507507 -0.080298916 -0.14129391 0.04488248
-0.10171188 -0.005850161 0.053703558 0.0052700243 -0.13378283 0.018300518 -0.070322685 -0.2344404
0.088276684 -0.102748655 0.07882801 0.11386115 0.034706008 -0.025193173 -0.027589234 0.008352386
0.0734009 -0.009098155 -0.05136915 0.03704237 -0.08160075 -0.049013197 -0.092749245 -0.005110348
0.03936083 -0.11710883 0.06695288 0.020502003 -0.034867156 0.07711819 0.18623987 0.10083039
-0.10782675 -0.038181424 -0.15976112 -0.14657117 0.011503903 0.1145303 -0.049394023 -0.023147773
-0.047055304 -0.14229839 -0.047497865 -0.05386893 -0.07259656 0.065177165 0.10499846 -0.12408181
-0.018534128 0.01475755 -0.10770778 0.072081685 -0.10124659 0.13322473 -0.17367646 -0.09214751
0.040137466 0.121982515 0.052347902 0.07916457 0.041713137 -0.0122351 -0.0035094873 0.017324485
-0.075630866 -0.055200357 -0.0007812672 0.022538379 0.020989941 0.034864683 -0.048086114 -0.0847251
0.005986875 0.00044369584 -0.047512352 0.03845197 -0.03197679 -0.10653749 0.105206095 -0.05373504
0.13975686 -0.059975535 0.13138652 -0.04231006 -0.1127053 0.069666244 0.03957199 0.117891036
-0.09480415 -0.019106645 -0.11772095 -0.17941466 -0.10038198 0.040818397 0.055291153 -0.059911676
-0.0016403018 -0.0502322 -0.043654777 -0.034255564 0.09079727 -0.069618165 0.008325442 0.06758389
0.030215843 -0.022093037 0.0475178 -0.04543785 0.038233284 0.0011864435 0.101651825 0.042746462
-0.025752828 -0.008945069 0.12009486 -0.024440313 0.023727704 0.019419398 -0.011474216 -0.0346269
-0.10212686 0.07642388 -0.038424913 0.01614795 -0.023994906 0.06246898 0.009554714 -0.034454048
0.007121373 -0.061367877 0.010021924 0.026229942 0.10148961 0.06758962 0.022665361 -0.06067776
0.0075561153 -0.08618932 -0.015235637 -0.027860906 -0.049775563 0.04258896 -0.07732789 -0.094660506
0.03699434 -0.08657454 0.0610339 -0.06409277 0.025587607 -0.05493474 -0.012858007 0.036085054
-0.0032396805 -0.039660413 -0.13648748 -0.0135894315 0.030808067 -0.08219016 -0.019781511 -0.0116914995
-0.04192696 -0.06452203 0.050543953 -0.027174503 -0.006821308 0.02867924 -0.062084235 0.0067354646
0.08712595 -0.018387664 0.017241744 -0.107135884 -0.0015774075 0.016054602 -0.0013260741 0.0046703084
-0.08463941 0.013294324 0.07597979 -0.12061578 0.047019683 -0.028857466 0.011851712 0.016197205
0.047191154 -0.030055076 -0.06269667 -0.009965183 0.10161613 0.08462203 0.04223279 -0.05322699
0.0035679976 0.093417235 -0.065490335 0.051303625 -0.025347574 0.105283976 -0.02038643 -0.17171295
-0.059855804 -0.011219994 0.01764036 0.12900549 -0.06251458 0.06424769 0.016547227 0.0066891625
-0.053747684 -0.033491 -0.10592405 -0.01924295 -0.11293682 0.05634272 0.10914653 -0.050988644
0.16616662 0.09464601 -0.10402729 -0.06825752 -0.012426712 0.068111636 0.105869845 -0.086411074
0.08898442 -0.055735514 -0.050017737 -0.09653195 0.0062592607 -0.09327159 -0.1252499 0.0995788
0.13313389 -0.030418854 -0.017200073 0.022298621 -0.10286627 -0.068462454 0.00020347637 0.0013552886
0.09042598 -0.005172343 0.06717662 0.10177747 0.043560952 0.018666936 -0.051405303 0.15881975

layers.6.bias f4 [100]
00000000: 4fb6 6dbd ea1e 373d e92e 8fbd 8f0c 46bb
00000010: f647 20bc 2e2f 043d 45f2 8fbb 04cf 303c
00000020: 1ac4 3dbd 2a92 03bc 9e00 b03b 9841 87bd
00000030: 439a 4dba d109 0dbd 574a e7bc e178 343c
00000040: 05e7 75bc 1c11 1ebd a8c0 af3c ca73 eb3c
00000050: 267e 113d af01 edbc 1035 25bd be4d 37bc
00000060: a6c4 bdbc 9b5f 92bc efdd 523c 885a 463d
00000070: 6b5c 0a3d 1a70 10bc 5ef4 093b 1d22 ebbc
00000080: 6dfc ca3b df5e 8c3c 3bc2 bd3b b805 8f3c
00000090: ecb2 9f3d dd7c 213c 1866 83bc 15eb 303d
000000a0: 3dc3 c7bd 6321 79bd fa2b 3ebd af0e 0a3b
000000b0: 888f 3abd 47e8 4b3d 1e24 873c c495 0ebd
000000c0: 6404 b8ba 6d7c 9abd 432b 0e3c a01a 79bc
000000d0: 9ea4 f9bc 12fe 5abc 3d6d a3bb 124d 6b3c
000000e0: f51c 4fbc 5500 f63c 240b 893d b1ae 823c
000000f0: 2f91 de3c aaea a3bc c3eb 0e3c 485e e3bc
00000100: 1179 23bd 3d1e ab3c 1e66 2abd ea5e 9f3c
00000110: ea6f 003d a8c8 d13d 987c 8dbc c44c ef3b
00000120: 8ba1 f8bc 8e36 c3bb ed31 013d 8314 21bc
00000130: 4980 69bb 4f93 513b 86ac 993b 1df5 9cbc
00000140: 7fe3 20bd b085 06bd cc07 abbb 6281 78bd
00000150: 4448 943d 32e8 dfbc e730 1d3d 9dea 8d3b
00000160: 6123 c4bc 913d 79bc 9231 5abc 5540 39bc
00000170: d183 c23c 169a 3c3d 940f d8bd a8e9 38bd
00000180: d5b9 b3bc 0184 b0bb 8bfa 173b 881f 5dbc
-0.05803519 0.044707216 -0.06991369 -0.0030219888 -0.009782782 0.032271557 -0.0043928945 0.010791544
-0.046329595 -0.008030454 0.0053711673 -0.06604308 -0.0007843116 -0.03443319 -0.02823369 0.011015148
-0.015008693 -0.038590536 0.02145417 0.028741736 0.035520695 -0.028931467 -0.040333807 -0.011187969
-0.023165058 -0.017867854 0.012870296 0.04842618 0.033779543 -0.00881579 0.0021050195 -0.02870279
0.0061946423 0.017135082 0.0057909763 0.017458782 0.077977985 0.00985643 -0.016039893 0.04319294
-0.097540356 -0.060822856 -0.046428658 0.002106588 -0.04554704 0.049782064 0.016496714 -0.034810796
-0.0014039394 -0.075432636 0.008677307 -0.015204102 -0.030474003 -0.013366239 -0.0049873875 0.014361637
-0.012641181 0.030029455 0.06691578 0.01595244 0.027168838 -0.020009357 0.008723202 -0.027754918
-0.03991038 0.020888442 -0.041601293 0.019454438 0.03135673 0.1024335 -0.017271325 0.0073028523
-0.030350467 -0.005957431 0.031541754 -0.0098315505 -0.0035629442 0.0031978672 0.004689756 -0.019159848
-0.039279457 -0.032842338 -0.0052194353 -0.060670264 0.07240346 -0.027332399 0.038376715 0.0043309466
-0.023942651 -0.0152124325 -0.013317483 -0.011306842 0.023744496 0.046045385 -0.10549846 -0.045144707
-0.021939198 -0.00538683 0.0023190107 -0.013496287

layers.8.weight f4 [100, 100]
00000000: b584 4cbb f17f 1ebb f88e 253b 70bd 0b3d
00000010: 79b5 163b 847a 3fbb f93c a3bc 9913 bd3b
00000020: a40a 433b 1d96 9c3b 9ca3 2d3c b5e5 58bb
00000030: 8ecb 80bc cd4b 0cbb 1077 8f3c 8a02 913c
00000040: 9980 8eb9 1c60 903b bc87 3bbb f131 353c
00000050: 0cfb 5139 0cbb 28bc e6c1 7ebb c08d 453d
00000060: b194 413c 70a7 dcbc 87b7 113c b192 fa3b
00000070: a7b5 17bc 32c5 da3b 487a 753c 0467 253c
00000080: 019d be3b b52f 88bc bc37 d93a 7a54 f5b9
00000090: d077 1a3c 703c f13b 66fe a1bc c83d 02bc
000000a0: 8e94 233c 6331 253c 55df 463c e0d1 ad3b
000000b0: 1bc1 48bc ebf8 80bc 719d f73c 1bda 1d3d
000000c0: fea8 23bb f290 88ba de95 27bb 1178 983c
000000d0: 2e7a 413c ba97 923c ae29 f23b 4929 453c
000000e0: c427 243d a4ed 963c 1aa6 abbb b70d 3bbc
000000f0: c170 3dba 34c2 913c 52e6 643c 9563 923b
00000100: 06e8 a13b c100 babc 32eb 20bc d7e4 a43b
00000110: 46c9 b33b 8449 7b3b a8b4 a33c 7c9f 753c
00000120: 7c68 cb3c 135e 8c3b b473 a7b8 68b8 01bc
00000130: a415 8b3b 2190 81bc a44e a13c 5d11 c1bc
00000140: 5004 3abc af74 3c3c c86a 9ebc 95f5 60b7
00000150: 9b0d d63b 2225 1cbc 6905 acbb eb03 fbba
00000160: 6df1 993c 6d83 adbc 6ac3 903c 88f0 19bd
00000170: 4a9b f13b 9112 463c e42f f2bb d73d 813c
00000180: b75d c0bb 77b5 263c 1f0d a13b 6e07 ea39
00000190: e3db 313d b7d4 fe3c 3a0d 93bc ab6a 5b3d
000001a0: dec8 963c 0ef9 65bc c525 0b3c e342 e0bb
000001b0: df9d 12bd ba8a 903d d3e0 753d bbc6 7b3d
000001c0: b848 91bd 3533 17bc fa5a 3e3c 0be1 233b
000001d0: be05 50bc d218 cebc ed74 883c cd88 9ebd
000001e0: 496f 22bd 10b6 efbc 5040 da3c 6350 93bc
000001f0: decc a73c 70ee 3e3a 333b d63c 6b65 7fbc
00000200: 4d1c 363d 1135 893d d1fa 34bc ef16 a1bd
00000210: 2bef 483c a4e8 9dbc 53db 84bd 305f b4bc
00000220: 303d 09bc ccca 3c3c 9b54 8dbd 1c3e 97bd
00000230: 2d60 a1bc 8da8 94bb 6bb9 803d 3699 19bd
00000240: c1dc bfbc b9ac 3bbc 8ed9 f33c fd83 03bd
00000250: 2fe2 da3b 8204 263c 9746 eb3c 8c74 0dbd
00000260: c100 dbbd 76b2 3e3d a44e 50bc 01e6 6cbd
00000270: bc48 623d c789 353d f3cd 5cbc 4e4b 01bd
00000280: 6aa3 36bc 4f61 fdbc fff8 693d 6ac0 e2bb
00000290: 1566 8e3d 07bc 9ebd 5b6e 69bd a8db 093c
000002a0: 1cea 85bc b666 8f3c cc57 993d 5db3 dfbc
000002b0: 1fc3 103c 3804 463d 8ee7 803d 7c27 aabc
000002c0: 655d 2c3d 7b5d 06bd 6e61 69bd f70d c03c
000002d0: d856 643d 975a 863c a525 9e3c b9a1 063c
000002e0: f20b 743d b42a cfbc 805a 3d3d 1535 013d
000002f0: d32a 373d 2a1a 9abd a103 193d d4e2 af3d
00000300: 4e99 713d 18c9 c63c 504b 1f3d 45f7 94bd
00000310: 7dcf 0c3d 5bd0 c83d 75cc 403d e88b 8f3c
00000320: 333b 0d3d 6afe bb3c 313c 0d3c a214 dcbc
00000330: ff5e 953b 26fc d03c 1814 863d ecb8 03bd
00000340: db18 46bc 6262 34bc 8a0f 69bc e7b3 513d
00000350: 24f4 123d 8dd5 a33b 951d bcbd 8fe3 38bd
00000360: e487 4e3c eb2f 1cbd 83fc 32bb f39c 2fbd
00000370: 782e 51bc 3416 6d3d 8df5 793b 721a afbd
00000380: c34e 44bd e8df 883d 83fd f0bc ca1d 12bd
00000390: c942 f63c 0f0a 43bd a37a 8bbd f3d4 40bc
000003a0: a383 a63b 2a2d 1b3d 7306 5ebd 161a 25bc
000003b0: eab3 61bc baac ebbc 029c 893d ede5 363c
000003c0: 1986 31bc e96f a8bc f0e8 1abb 97c8 35bd
000003d0: effc 183c da90 54bc b6b3 43bd 2862 d1bd
000003e0: 9f50 b13c d4f2 df3b 6312 2dbd 823d eebc
000003f0: d862 82bd 5933 98bc 6efe 893b 0c2a 543a
-0.003120703 -0.0024185146 0.0025262218 0.03411621 0.002299635 -0.0029217312 -0.019926535 0.0057701585
0.002976098 0.004778637 0.01059809 -0.00330959 -0.015722062 -0.0021407485 0.017512828 0.017701406
-0.00027180163 0.0044059884 -0.002861484 0.01105927 0.00020025315 -0.010298502 -0.0038872897 0.048230886
0.011815236 -0.02693531 0.008893854 0.0076468815 -0.009259618 0.0066763395 0.014982767 0.010095362
0.005817056 -0.016624311 0.0016572396 -0.0004679298 0.00942798 0.007361941 -0.019774627 -0.0079493
0.009984149 0.0100825755 0.012138207 0.00530456 -0.012253071 -0.015743693 0.030226441 0.03853808
-0.0024972553 -0.0010419174 -0.0025571506 0.01861194 0.011808915 0.017894614 0.0073902225 0.012033769
0.040076986 0.018423863 -0.0052383067 -0.011416844 -0.00072265795 0.017792799 0.013970928 0.0044674375
0.0049409894 -0.022705438 -0.0098217 0.0050321626 0.00548664 0.003834338 0.019983605 0.014991637
0.024830095 0.0042836755 -7.984732e-05 -0.007917501 0.004244523 -0.015815796 0.01969082 -0.02356785
-0.011353567 0.011502429 -0.019338027 -1.3408619e-05 0.0065323836 -0.0095303375 -0.0052496684 -0.0019150948
0.018791879 -0.021180833 0.017671306 -0.037582904 0.007373248 0.0120893875 -0.007390963 0.015776558
-0.0058705467 0.0101751005 0.0049148942 0.00044637494 0.04342259 0.03110729 -0.017950643 0.053568523
0.018406328 -0.01403643 0.008492892 -0.006843911 -0.03579509 0.0705771 0.060028862 0.06146882
-0.07093948 -0.009228517 0.01161837 0.0025005962 -0.012696682 -0.02515832 0.016657317 -0.077409364
-0.03965691 -0.029261619 0.026641995 -0.017982667 0.02048343 0.0007283455 0.026151275 -0.015588145
0.044460583 0.06699575 -0.011046127 -0.07865702 0.012264053 -0.01927597 -0.06487145 -0.022018045
-0.008376405 0.01152296 -0.06900903 -0.07384893 -0.01969918 -0.0045366944 0.06285366 -0.03749963
-0.023420693 -0.0114547545 0.029766824 -0.032108296 0.006679795 0.010132911 0.028720183 -0.034534976
-0.10693503 0.046556912 -0.012714062 -0.057836536 0.055245146 0.044320848 -0.0134768365 -0.031565957
-0.011147359 -0.03093019 0.057122227 -0.00691991 0.06953064 -0.07750707 -0.05699001 0.008414187
-0.016346984 0.017505031 0.07487449 -0.027307207 0.008835583 0.048343867 0.062941656 -0.02077078
0.042081255 -0.032803994 -0.05697768 0.023444159 0.055746883 0.016400618 0.01930506 0.008217269
0.059581704 -0.025288917 0.046228886 0.031544764 0.044718575 -0.07524522 0.037356976 0.08588186
0.058984093 0.02426581 0.038890183 -0.072737254 0.034377564 0.09805366 0.047069985 0.017522767
0.034480285 0.022948463 0.008620308 -0.026865307 0.0045584436 0.025510859 0.06546801 -0.032158777
-0.012090887 -0.011009784 -0.014224896 0.05119696 0.035877362 0.0049998225 -0.0918533 -0.04513889
0.012605641 -0.038131636 -0.0027311153 -0.042874288 -0.012767427 0.057882503 0.0038140744 -0.08549966
-0.047926676 0.06683332 -0.029417759 -0.03567294 0.030061143 -0.047617014 -0.068105005 -0.011769521
0.0050816103 0.03788487 -0.05420537 -0.01007702 -0.013775805 -0.028768886 0.06719209 0.011163217
-0.010835194 -0.020561175 -0.0023637377 -0.04438075 0.009337648 -0.012973988 -0.047778808 -0.102238
0.021644888 0.0068343673 -0.042253863 -0.029082064 -0.06366509 -0.018579172 0.0042112386 0.00080934237

layers.8.bias f4 [100]
00000000: 4b76 bfbd fe6d bd3b f790 f9bc 697a 893b
00000010: 4c21 1e3c dbe0 523b a1b9 ff3b 7d4a f639
00000020: f1da 2dbc c032 30bb 9a3b 2e3a 0f42 d3bb
00000030: e281 0bbb faa1 003b 1d4f df39 a220 96ba
00000040: 5635 21bb aa77 4b3b 6142 8539 56d8 86bb
00000050: e2a7 a7ba 2f71 613a a057 fa3a 99c1 c938
00000060: c482 f5ba ddc1 3bbb 819b 8f3b e67a 58ba
00000070: ae5b 14bb 8b1d 5c3b 116c a23b f9d7 06bb
00000080: 66e2 7eba 3d34 2ebb 079c 09bb 3333 f1bb
00000090: e000 763b ec32 aeba 5cb8 96bb c42d d8ba
000000a0: bce0 1c3b 2003 4d3b 7a7a 143b 4d3e ad39
000000b0: 8912 3eb9 69fa db3b 8cd5 caba 88da c63b
000000c0: 3a38 083c b204 43bc d277 4dbb 4d23 d3ba
000000d0: 9277 13bc 7688 3ab9 6469 0139 4ff2 d4b9
000000e0: 6d9a 1aba 4dc8 053c 953c 36bb dced febb
000000f0: 9833 3b3c e66e 8e3b 38c5 a338 8d47 723b
00000100: b36c d6b9 eec6 143b f099 ad3a af37 aabb
00000110: 95d4 6a3b 27c0 ddbb dd1d 04ba 94a2 acbb
00000120: ecbf e33b c4fb 07ba 02d4 f6ba 1d39 b7ba
00000130: 7b4f 65bc 818f 6b3b 50b0 c9bb 96ea 70bb
00000140: 799f 3fbb fb26 133b ee60 d53a 1c33 12bb
00000150: 4e63 0c3c 68d8 a1ba 68b5 a93a c9d1 5fbb
00000160: cec1 c639 c999 153c 540b 043b dfe9 c1bb
00000170: 3177 4dbc 4461 d2ba 5bcb adbb 4390 ccb8
00000180: 5f0d ac3a d17d 253b 61b0 9e3a 3152 34bb
-0.093487345 0.0057809344 -0.030464632 0.0041955006 0.009651493 0.0032177481 0.007804111 0.00046976274
-0.010611282 -0.0026885718 0.00066464546 -0.006447084 -0.0021287133 0.0019627796 0.00042592818 -0.0011453817
-0.002459844 0.0031046667 0.00025417193 -0.0041151447 -0.0012791122 0.00085999345 0.0019099601 9.620487e-05
-0.0018730988 -0.0028649487 0.004382551 -0.00082580594 -0.0022637653 0.0033586945 0.00495673 -0.0020575507
-0.0009723067 -0.002658143 -0.002099754 -0.0073608398 0.0037537143 -0.0013290322 -0.004599614 -0.0016493131
0.0023937663 0.003128238 0.002265601 0.0003304355 -0.00018126717 0.006713201 -0.0015475019 0.0060685314
0.008314187 -0.011902975 -0.0031351936 -0.0016108543 -0.009000676 -0.00017789178 0.0001234166 -0.00040616325
-0.0005897645 0.008165431 -0.0027807106 -0.00777982 0.011425875 0.004346716 7.8091805e-05 0.0036968917
-0.00040898248 0.002270158 0.001324473 -0.0051946263 0.0035832275 -0.006767291 -0.00050398504 -0.0052684043
0.006950369 -0.00051873573 -0.0018831494 -0.0013978813 -0.013996 0.003594369 -0.0061550513 -0.0036760918
-0.002923934 0.0022453654 0.0016279498 -0.0022308296 0.008568598 -0.0012347819 0.001294774 -0.0034152141
0.000379099 0.0091309035 0.0020148354 -0.005917772 -0.0125406245 -0.0016050716 -0.005303783 -9.754349e-05
0.0013126543 0.0025251994 0.0012107008 -0.002751481
